cs145_s21.pt (torch, 555991 bytes, 6 tensors)

ll1.weight f4 [512, 131]
00000000: 3b42 19bd 2a8c 0c3e 7045 93bd b7b7 ddbc
00000010: bad5 09bd 1715 39bd 39e2 4dbd 10b5 283d
00000020: ac6a ddbd 1825 9a3d 7ef8 bebc cc45 b3bd
00000030: 0fed fdbd aad9 5abd f6f6 c73c 7520 eebc
00000040: 674a cb3d d530 a2bc b2e6 853c 26b0 65bd
00000050: e6ae 053e bb7c 343e d1ec b4bd 0ab2 f03d
00000060: 3aa7 cc3d 6dff 243d 34bf 163e bab1 04be
00000070: 2092 95bd d427 97bd 80bb babc 9059 6b3d
00000080: f899 c1bd 4072 2b3c 1a46 9bbd e856 fdbd
00000090: 19e7 50bd 3d68 5a3e 903d 8eba 13fd 073e
000000a0: 3703 79bb 2e22 bfbd f692 c93d abc2 01be
000000b0: c64a 81bd 077e 38bd cd9a c53d 1a41 193c
000000c0: ba62 e5bd f7ac 8b3d 1e7e f83d b0b0 153e
000000d0: f1af b73d f207 ccbb b084 dc3c 8c59 82bd
000000e0: 3b1b 04bd baae 21bd fec5 d1bd 8cde 38bd
000000f0: 1416 343d f2e1 d13b cff3 d03c 85c0 d93d
00000100: c1f9 6e3d 34d5 56bd 6736 0fbd fe6a de3d
00000110: 86e9 8d3d 8ee4 bd3d bef5 0fbe e6de da3c
00000120: 3111 18bd 67af 033e 269a 423e c137 113e
00000130: 37c3 b23c c2fe febd f223 09bd fcdd 94bd
00000140: 43c2 a6bd bc06 913a 3aca d13d fea6 f4bd
00000150: d000 b83b 8825 71bc 2056 043d 771a 473c
00000160: 2363 413d da72 4c3d f733 87bc 46d7 9c3d
00000170: 2fe9 1a3e b0cf 053d 7ac3 b6bd 003c b6bd
00000180: 1cae d13c 7215 7a3d dab1 c93c 5efe ce3c
00000190: 68e8 f93c 369d 033e 144d 593c 7606 903d
000001a0: 1867 1dbe 87b6 95bd 979a f0bd 9861 573d
000001b0: 63d0 0e3d c9a8 8fbc 3e63 c5bd f7c1 d43d
000001c0: 9bf8 483d a015 213e d11f ff3c 71a7 b6bb
000001d0: c89f 953d db4e 3a3d 53bb c4bc 8fc8 dd3d
000001e0: 2699 f8bb 924f 8bbd 8ec0 1e3c 650b 4ebb
000001f0: 9e3d 6bbd 5690 bd3c 1058 fb3c a752 2ebd
00000200: d177 c93c 9ea8 92bd 6058 903d 46a4 90bc
00000210: 5e12 eebd d0ec 92bb 25a1 203e c0f1 2e3d
00000220: 3625 b3bc 683f 2bbb 5255 ce3d 66e2 3a3e
00000230: 9cdb 263e 583b 093d ebdc 703d b00d cfbb
00000240: 25c2 cdbd 5aa8 29bd caac 733d 344c 8cbc
00000250: a432 83bd 97f3 01be d074 a7bd b305 97bd
00000260: d1a5 c4bc b5b5 c23c e27a 023e c29d 8cbd
00000270: e929 093c 4520 79bc f0f2 5dbc 2d1b 11bd
00000280: d742 18bd d116 37bc 2391 a0bd 5244 c6bd
00000290: eaa9 703d d96e 863d c2e6 183d 1ed4 df3d
000002a0: 04a3 30bd f632 ba3d e11b 223e a539 c2ba
000002b0: e1a9 ab3d d5a2 abbc 427b a1bd 0563 ae3c
000002c0: 5bce 853d 1c10 eb3c 3969 163e ce4b 8fbd
000002d0: 8e02 e73d a783 023c 81e8 0f3e c638 33bd
000002e0: 42f5 2b3d 65b7 a73d fdd0 933c 105e 5cbc
000002f0: 0df8 24bd e3b0 fe3d 29e9 103d f0d3 1a3d
00000300: e7bf a2bd 84b9 8b3c bfa1 acbd 5ec3 aabd
00000310: 3235 bdbd 3197 0abb a116 bbbd 376e a9bc
00000320: 243a a9bc 784a 693d 5ef0 dbbd d70d 653d
00000330: aa5c fb3c 3e32 9d3d 6f78 44bd cfd2 533d
00000340: 0694 153d dd0e 18bc 007f 2aba 42f9 51bd
00000350: 6974 d23d 0b6c d1bd 7bbe 0dbd 0c28 c2bc
00000360: f0ec 98bc ad8f 9cbd bf5a 1a3e 155b c3bd
00000370: f093 cdbb 1918 bb3d feeb 2abd a580 a93d
00000380: 9e65 bfbd 9cec 2e3e 40e7 7ebd 2c2c cbbc
00000390: 3d6a 6abd da0b 57bd e6a6 71bd dad7 533d
000003a0: f226 df3d 5ea3 1e3e 2d6e 0e3e 7f93 a2bd
000003b0: 1f62 083e 3327 a8bd e0cb 0fbd 5b29 773d
000003c0: 2756 3fbc cbe1 c63c 8fe5 1dbd 00aa 1239
000003d0: 8527 933d 4c94 d1bd 0e79 89bc 0cf7 93bd
000003e0: d7c1 c23d 54a9 51bd f560 833d e362 b53d
000003f0: bb43 953d 69d0 01be fe76 54bd f55a d93c
-0.037416678 0.13725343 -0.071909785 -0.027065141 -0.03365109 -0.04518613 -0.05026457 0.0411883
-0.10811362 0.07526606 -0.02331185 -0.08753547 -0.12398731 -0.053430237 0.024409752 -0.029068211
0.099263005 -0.019798676 0.016345356 -0.05607619 0.13055 0.17625706 -0.08834232 0.11752708
0.099928334 0.040282656 0.14721376 -0.12958422 -0.07303262 -0.073806435 -0.022794485 0.05745846
-0.09453195 0.010464251 -0.0758173 -0.12370092 -0.051001642 0.21328826 -0.0010852087 0.13280134
-0.00379963 -0.09332691 0.09842484 -0.12671916 -0.0631309 -0.045042064 0.096486665 0.0093539
-0.11200471 0.068201 0.1213343 0.14618182 0.08969105 -0.006226533 0.02691874 -0.06364736
-0.03225253 -0.039473273 -0.10242842 -0.045134112 0.043966368 0.0064051086 0.025506882 0.10632423
0.058343653 -0.05244942 -0.03496399 0.10860251 0.06929307 0.09272109 -0.14058587 0.026717614
-0.03712577 0.1285988 0.19004115 0.14181425 0.021821601 -0.12450935 -0.033481546 -0.07268903
-0.08142521 0.0011064629 0.1024365 -0.11945914 0.005615331 -0.014718421 0.032308698 0.012152306
0.047213685 0.04991422 -0.016504271 0.07658248 0.15128015 0.03266877 -0.08924003 -0.08898163
0.025595717 0.061055608 0.024620939 0.025267776 0.030506328 0.1285294 0.013263006 0.07032482
-0.15371358 -0.07310205 -0.11748236 0.052583307 0.0348667 -0.017536538 -0.096380696 0.10388558
0.049065214 0.15730906 0.031143101 -0.00557416 0.073058665 0.04548536 -0.024015104 0.10829269
-0.007586616 -0.06802286 0.009689463 -0.0031439897 -0.05743181 0.023140114 0.03068164 -0.042559292
0.024593266 -0.071610674 0.07048106 -0.017656457 -0.11624597 -0.0044837967 0.15686472 0.04271102
-0.02186833 -0.0026130322 0.10074867 0.18250427 0.16294712 0.03350386 0.058804434 -0.0063187703
-0.10046796 -0.04142032 0.059490956 -0.01712618 -0.06406143 -0.12690578 -0.08176577 -0.07374134
-0.024004849 0.023768285 0.12742189 -0.068660274 0.008371809 -0.015205448 -0.01354669 -0.035426307
-0.03717312 -0.011174873 -0.07840183 -0.09681 0.058755793 0.06564111 0.037329443 0.1092913
-0.043124214 0.09091751 0.15830947 -0.0014818205 0.08382011 -0.020951668 -0.07884838 0.02128745
0.065335 0.028694205 0.14688577 -0.069968805 0.11279784 0.007965959 0.14053537 -0.043755315
0.041981943 0.081892766 0.01804399 -0.013450161 -0.040275622 0.12436082 0.03537861 0.037799776
-0.07946759 0.017056234 -0.08429288 -0.083380446 -0.09238662 -0.0021147246 -0.091351755 -0.020682437
-0.020657606 0.056955785 -0.10739206 0.0559214 0.030683834 0.076755986 -0.047966417 0.051714715
0.03651812 -0.009280887 -0.000650391 -0.0512631 0.1027611 -0.10225686 -0.034605484 -0.023700736
-0.018667668 -0.076445915 0.1507368 -0.09538857 -0.006273739 0.09135456 -0.041728966 0.0827649
-0.09345554 0.17082447 -0.062232256 -0.024801336 -0.057230223 -0.052501537 -0.058997057 0.051719524
0.108961 0.15492007 0.13909216 -0.07938289 0.1331868 -0.08210602 -0.03510654 0.060342174
-0.011678255 0.024277588 -0.038549002 0.00013986975 0.07185272 -0.102333635 -0.016781356 -0.07224855
0.09509628 -0.051186875 0.064149775 0.08856752 0.07288309 -0.12677158 -0.051871292 0.02653263

ll1.bias f4 [512]
00000000: 1899 da3d bb9e b93d 02ab 043e 03dd af3d
00000010: 11e8 2e3d 10c7 c83d 17bb be3d 7957 413e
00000020: c2e8 953d f261 0b3e 0604 6d3a c5bd c4ba
00000030: 0f08 1e3e 9cdc 103e 1b4e 0e3e 3469 3e3e
00000040: c457 e43d 08fb 193d 20e5 883c b205 803d
00000050: 18ec 253e b1e8 eb3d d41d 173e 0b76 3bbc
00000060: 298e fb3d 39df 183e ed26 123d 265e 043e
00000070: 8354 103e 163f a23d ed27 223e 9e1c 5b3d
00000080: 6314 e83d 4109 953d 391a d93d ddc8 6e3d
00000090: 44c0 d23d 7074 393e dec6 083e b681 b23c
000000a0: 22c8 443e 9121 1f3e 05f7 1f3c 98b6 6a3c
000000b0: 5b1a 363d 98f7 4a3d 225f 933d 3456 113e
000000c0: de3f 023e 1330 b93d cb7b b43c 14d2 193e
000000d0: 9c4a 483e 8ce0 df3c 9934 8a3d 5bf4 e63d
000000e0: f832 ed3c b1c9 d93d 0f00 943d c73b 133e
000000f0: 710f 123d 5f42 243c 9476 9a3d 2029 c83d
00000100: f6b0 873d cb38 ac3d f4cd 9f3d 5777 c53d
00000110: acaf a73d 4845 c43d 2dc6 0b3e 3889 763c
00000120: f98a fd3d 1c8c 193e ee8e cc3d 28c2 9c3d
00000130: b670 4c3d e995 353e a51c 973c c60c a93d
00000140: 5ff7 1f3e 84d7 e73d f7ac 283d 34bd a43d
00000150: 12b7 413e 2769 b03d 003b 0e3d c76e 353d
00000160: 56cb 0d3d 0471 763c 4b6e e73c e21e 7f3d
00000170: 663f 953d 5929 183e fe3d ec3c 2d21 673d
00000180: 16b8 763d 82ab 083e 2d28 843d 0579 053e
00000190: a6c9 c83d 60f7 9c3d 772a c53d 64c3 0bbc
000001a0: 9975 f33d 7db6 233e 4a51 3b3d e4e6 e43d
000001b0: 160a 053e 3655 1c3e 559e 3b3e 1226 0e3e
000001c0: 3a80 d93d 7fcd 5a3d 43cd c23d 0cd2 413e
000001d0: 76ff fb3d 75bf 173e e168 083e 6f4d 3b3e
000001e0: a413 193d 137a e13d 8039 f03d 61f1 113e
000001f0: 6e1d dc3d b9ab 1b3e e296 603d 7079 2b3e
00000200: e37a ee3d b47f b4bc 794d 243e 3239 953d
00000210: ed92 d63b 9724 173d 9c2f 3a3d 3c0e b73d
00000220: c493 f53d 5fd0 ed3d 674f e23d 61e5 c13c
00000230: b987 6d3d 39bd e93d 1f6a 4e3e 5a3d ae3d
00000240: 7886 423d 6d2c 193d 7bed 5e3d c49f 013e
00000250: 9090 333e db2a 263e b6c4 303d e821 f43d
00000260: 9378 193e 3637 6c3d 44db ed3d f06b fb3d
00000270: 9557 443c 12f8 043e 9437 2d3e fdac ed3d
00000280: 7211 cf3d fb59 853c 7626 b83d 7dec 293e
00000290: 6495 bc3d fe5d 8c3c 99fe 003e dc5d 103e
000002a0: 6dce d63d 6a42 273e d47c fe3d d58c 053e
000002b0: 96d6 253e b762 2839 f801 063e 2273 f43d
000002c0: e3b7 d03d a2d7 003e 2b0d 1c3e 1260 9a3d
000002d0: aa39 103e 871e b93d c8f1 42bc 26c7 a13d
000002e0: 60d6 843d f2fb 263e 2644 0f3d 4c61 853d
000002f0: 5e28 b83d 7a6d 563d 75d7 1a3d b3ca f73d
00000300: f13f a43d 87ca 253e 0de7 433d 1c88 b53d
00000310: 7907 f43c 6aea e53d 1b0c 173d 3344 1d3e
00000320: a394 af3d ece4 553d a605 ea3c 760c 723d
00000330: 232a 813d e9e8 b23d 3fbd 7c3d f90b 1a3e
00000340: e8e8 a33d 1980 133e 5b8d 083e d654 d83d
00000350: 98e2 123e b328 303e 93a2 e33d 2517 2c3e
00000360: 6449 db3d fc2d 7e3b 0724 163d 8b3d 7f3d
00000370: 66c1 9a3d c677 8e3d 4d19 f23c c95c 053d
00000380: 9fbe 043d cd72 cc3d c303 9c3c 1ec6 9ebc
00000390: 362d b33d 55b8 dd3c 2c9e b93d ab7f a53d
000003a0: f35a 713d f7f1 1e3e c586 0a3e d012 1c3e
000003b0: c7a3 113e 06ce e13d d7b5 043c 8f70 d73d
000003c0: b855 483d 1124 4a3d 0cad 3e3d d28b bf3d
000003d0: c1cb 2c3d 7f7b 033e e5f5 163e b700 673d
000003e0: 3693 763d 8ce2 153d ddbe a43d e690 323e
000003f0: ee5f 993d 624e 863d 2d7a f73d d195 b83d
0.106737316 0.090634786 0.1295586 0.085870765 0.042701785 0.09803593 0.09313028 0.18881024
0.07319786 0.13611582 0.0009041432 -0.0015010169 0.15432762 0.14146656 0.13896982 0.1859482
0.111495525 0.037592918 0.016710818 0.06251086 0.16203344 0.11518992 0.14757472 -0.011441718
0.12282974 0.14928903 0.035681654 0.1292654 0.14094739 0.07922189 0.15835543 0.05349409
0.113320135 0.07277156 0.10600705 0.058297027 0.10290578 0.18110824 0.13357112 0.021790367
0.1921697 0.15540148 0.009763484 0.01432576 0.04445873 0.04955253 0.071958795 0.1419304
0.12719676 0.090423726 0.022031685 0.15021545 0.19559711 0.027328752 0.067483135 0.11277076
0.028954968 0.10634173 0.07226574 0.14378272 0.035659257 0.01002559 0.07542148 0.09773469
0.066255495 0.0840927 0.07802954 0.09641903 0.081878036 0.09583527 0.13649817 0.015047364
0.123800226 0.14994854 0.09988199 0.0765422 0.049912177 0.17732967 0.018446276 0.082543895
0.15621708 0.11320403 0.041180577 0.080439 0.18917492 0.08613806 0.034724236 0.0442951
0.034617744 0.015041593 0.028250834 0.06228531 0.07287483 0.14859523 0.028838154 0.056428123
0.06023415 0.13346675 0.064529754 0.13034447 0.098040864 0.076643705 0.0962724 -0.0085304715
0.11887664 0.15987583 0.04573182 0.111768514 0.12992129 0.1526688 0.18322118 0.1388171
0.106201604 0.053418633 0.09511807 0.18927783 0.12304585 0.14819129 0.13321258 0.18291257
0.037372246 0.11009612 0.11729717 0.14252235 0.10747801 0.15202226 0.054831393 0.16745543
0.116445325 -0.02203355 0.16045178 0.072863 0.0065482766 0.03690013 0.04545556 0.08938262
0.11991075 0.11612009 0.11050301 0.023668947 0.057990763 0.114130445 0.2015767 0.08507796
0.04749152 0.037395883 0.054425698 0.12658602 0.17535615 0.16227286 0.04315635 0.119205296
0.14987402 0.05766984 0.11614087 0.12276447 0.011983772 0.12985256 0.16915733 0.116052605
0.10110749 0.016278258 0.08991711 0.1659412 0.092081815 0.017134663 0.12597121 0.14098305
0.10488591 0.16333929 0.12426153 0.13042004 0.1619514 0.00016058503 0.13086689 0.11936022
0.101913236 0.12582257 0.15239398 0.07537855 0.14084497 0.09039026 -0.011898465 0.07899313
0.06486201 0.16307047 0.0349771 0.065126985 0.089920744 0.0523505 0.037803132 0.12099209
0.08020008 0.1619054 0.04782777 0.088638514 0.02978872 0.112263516 0.03687678 0.15358047
0.08573272 0.05222027 0.028567147 0.059093915 0.06306865 0.0873583 0.061703917 0.1504363
0.08003408 0.14404334 0.13335173 0.10563056 0.14344251 0.17203026 0.11114993 0.16805704
0.107073575 0.0038784733 0.036655452 0.06231455 0.07556419 0.06956439 0.02955308 0.03255919
0.032408353 0.09982834 0.019044762 -0.019381579 0.08748858 0.027065435 0.09063372 0.08080991
0.058924627 0.1552199 0.13527973 0.15241551 0.14222632 0.11025624 0.008099995 0.10519516
0.048909873 0.0493508 0.04655175 0.093528405 0.042186502 0.12840079 0.14742239 0.056397166
0.060198985 0.036593005 0.08044217 0.17438087 0.07489 0.06557919 0.1208385 0.0901295

ll2.weight f4 [128, 512]
00000000: 1e00 c33c 9793 ec3d d514 c13b ad4d 6c3d
00000010: f1df 383d dbeb fab9 d2de 943a c862 d73d
00000020: f405 1bbd d77a 443d af3e 06bd 98f3 afbd
00000030: dedc babc 655f 9a3d 3adf f4bd c73b 65bd
00000040: fe42 b7bd d6b6 623b 0475 f23c ab06 b9bd
00000050: 3209 27bc b063 52bd 3f44 9dbd 10bd f4bc
00000060: 39ba 28bd 1069 fc3c 1953 823c b2b7 c73d
00000070: a4d0 2e3c da9a 89bc 2fe3 b93c cae9 46bd
00000080: 4a47 b43d 4d92 d3bb 8bab 9cbd eaaa 833d
00000090: 814e 4e3d 6a75 5f39 5508 82ba ccc5 5bbd
000000a0: d0ec 513d 6366 aa3d 3733 343d ce28 b1bd
000000b0: 7ad4 b33d 0468 053d 1970 d23d 0c2e aa3d
000000c0: e25c ddbc 9ea7 193d 0b2f 913d 3d29 843b
000000d0: a9a3 acbb d274 c2bb afc6 01bd 4b08 c73d
000000e0: 68d8 bfbd f734 a43c 2f50 483d 20d4 a2bd
000000f0: 5104 43bd 3e41 053e 2009 943c a615 68bd
00000100: 2f68 2f3c 5512 b53c 273b ad3d cc1b 853d
00000110: 945c a83d 2c80 cb3b 9245 5b3d 0d6b 98bd
00000120: 78b5 6d3d c621 b93d 83bf 0dbc 4937 58bc
00000130: 08a3 39bd 1d5d f93d eb35 c4bb 4d55 d1bd
00000140: 29bb 423d 032a 25ba 093e b73d cab9 f83d
00000150: fcb4 9b3d ae8a eb3c 0adc 033c 11ca f13d
00000160: 495a 4abb 42b0 cdbd d510 f93d 5686 733c
00000170: 90a3 16bd 04b1 a6bb 17fa 753c e5e7 a83c
00000180: 6220 8bbb b0a8 173c 8ae3 203d c4e4 3b3c
00000190: bc90 03bb 2908 93bc 92f1 9d3c 00f9 3c3c
000001a0: 72f4 0b3c 6d43 78bd bc42 b53d 029b 98bd
000001b0: caf2 1cbb 1ebb 9d3c eb44 633c 239f cfbd
000001c0: 1982 323d cce5 3fbc 0539 a93c 30bd bd3d
000001d0: fae8 953d 92d3 943d a033 a0bc 2184 583d
000001e0: 49e7 a2bd 93ea 073e 6bf4 dcbb da33 d53c
000001f0: 5388 513d acf4 33bc f954 033e da5b b83d
00000200: 112d 443d 60ef 183d 7c4f c43d 946d cb3a
00000210: f556 0cbd 4b02 cfbd ae02 7abd d582 8f3b
00000220: 06ec 6abd bb9d 483d 62a9 93bc 6084 eebc
00000230: 76ff d13d 0cfb dabd 5365 d23d 3f8a 563c
00000240: 8487 b03d 38c4 c0bb d2f6 a63d a4ea ed3c
00000250: b115 b13d 9cd6 16bd f1f7 92bd 55a2 983c
00000260: 6bfc e7bd ff41 62bc b809 d33c 0f94 09ba
00000270: 117f 713d 655d 7d3d de08 f2bc 7718 8b3d
00000280: e9da 753d ff21 4d3d 3b49 bf3d a6b0 c6bd
00000290: d240 c5bc 8ac3 bf3d 233b a13d 93bd 1dbd
000002a0: 0c1c 3ebd 80fb cabb 2c26 453d 0e91 823d
000002b0: e3c6 c53c 821b 46bd f4b5 803d 97f9 3fbd
000002c0: 3767 5ebd ed6b 7d3c a683 e1ba f4a1 8b3a
000002d0: 3d91 d1bd af0e 86bd 0b85 833d 4316 60bd
000002e0: 115f 0abc 9b03 0e3d 0666 bf3c 901f c83d
000002f0: 9094 b03d 11d2 ae3b 011b f93d 0871 9e3d
00000300: 2291 373d 58bc a73b 0dde 6b3d bf35 9f3d
00000310: b94e 863d c00a 7b3c 3ed6 9b3c de08 013e
00000320: 0600 283d 08cd afbd 0237 813d 20ad b4bd
00000330: c735 aabd 7de1 2cbd e287 34bd cc3b d83c
00000340: 4264 ddbc a633 043a 72fd 863d cd67 58bd
00000350: 185a e33c 0c3a 0dbc ac1d 03bd 87a1 513d
00000360: 0252 163d b0fc 8d3d 9374 01bd 1219 c63c
00000370: 7faa 4cbd 56f2 8e3d 82fd 473d 0f35 e4bd
00000380: 153c 88bb 16f1 31bc 223c 26bd 9a6f 043d
00000390: 5f08 4abd 7d35 d4bc ccfe 1dbd 488a 9a3d
000003a0: 7730 6f3d b3f4 b83d ce6d 98bd fe02 283d
000003b0: 295f 353d acc4 cbbd a822 d93c 3042 2cbd
000003c0: e95b 7ebd c767 ad3d 07ea 14bd f3b2 1c3c
000003d0: 7ab8 5e3d 4dcb a8bd 9616 953d 0ebc 513d
000003e0: 8208 c9bb 6d53 21bc 6c8b 6c3d 3c5a 403b
000003f0: e5f2 df3d 89b7 0abd de3f ac3d b613 7e3d
0.023803767 0.11551588 0.005892376 0.057691265 0.045135442 -0.00047859442 0.001135791 0.10516888
-0.037847474 0.04796871 -0.032774623 -0.08591384 -0.022810396 0.07537726 -0.119566396 -0.05596521
-0.089483246 0.0034593842 0.029596813 -0.09034475 -0.010195063 -0.0513646 -0.076790325 -0.029875308
-0.04119322 0.030811816 0.015908765 0.09751834 0.010669861 -0.016797472 0.022691337 -0.048562802
0.0880266 -0.0064566494 -0.07649907 0.06429084 0.050367836 0.00021310677 -0.0009920696 -0.05365543
0.051251233 0.0832031 0.043994155 -0.08650361 0.08780761 0.0325699 0.10275287 0.08309564
-0.027021829 0.037513368 0.07089051 0.0040332363 -0.0052685332 -0.005934336 -0.03168362 0.09718379
-0.09367448 0.020044787 0.048904594 -0.07950616 -0.04761154 0.13013169 0.018070757 -0.05666127
0.010705992 0.022103468 0.08458548 0.064994425 0.08220783 0.0062103476 0.053533144 -0.07442293
0.05803439 0.09039645 -0.008651617 -0.013196775 -0.045321494 0.12175963 -0.005987873 -0.10221348
0.04754177 -0.0006300511 0.08947379 0.121448115 0.076028794 0.028752651 0.008048067 0.11806119
-0.0030876568 -0.10043384 0.121614136 0.014863571 -0.03677708 -0.00508702 0.015013239 0.020618388
-0.0042458037 0.009256527 0.0392795 0.011468116 -0.0020075282 -0.017948227 0.019280229 0.011533976
0.008542167 -0.060611177 0.08850619 -0.074514404 -0.0023948424 0.019254263 0.013871412 -0.10137775
0.043581102 -0.011712503 0.020657072 0.092646 0.073198274 0.07266916 -0.019555867 0.052860383
-0.079542704 0.13273077 -0.006743004 0.026025701 0.0511554 -0.010983627 0.12825383 0.09001894
0.04789454 0.03733766 0.09585473 0.0015520328 -0.034262616 -0.10107859 -0.06103771 0.00437961
-0.057353996 0.04897855 -0.018025104 -0.029115856 0.102538034 -0.10692415 0.10273232 0.013094484
0.086195976 -0.005882766 0.08152546 0.02904255 0.086467154 -0.03682576 -0.07176197 0.018632093
-0.11327442 -0.01380968 0.02576147 -0.00052481977 0.05895907 0.061856646 -0.029545244 0.06791776
0.060023222 0.05008125 0.093401395 -0.09701662 -0.02407876 0.09363468 0.078726076 -0.03851087
-0.046413466 -0.006194532 0.048132107 0.06375323 0.024142688 -0.048366077 0.06284705 -0.046868887
-0.054297652 0.015467626 -0.0017205372 0.0010653124 -0.1023278 -0.065457694 0.0642186 -0.05470873
-0.008445517 0.034671407 0.023364078 0.09771645 0.08622086 0.0053351005 0.12163354 0.07736403
0.044816144 0.005118888 0.05758481 0.07773923 0.06557984 0.015322387 0.019023057 0.12601039
0.041015647 -0.085840285 0.0630932 -0.088220835 -0.083110385 -0.04220723 -0.0440749 0.0263957
-0.027025346 0.00050430966 0.065913096 -0.052833367 0.027752921 -0.0086197965 -0.03201072 0.051179435
0.036699302 0.06932962 -0.031605314 0.024181876 -0.049967285 0.06979816 0.04882575 -0.111429326
-0.004157553 -0.010860702 -0.04058469 0.032332994 -0.04932439 -0.025904411 -0.03857307 0.07545906
0.05839583 0.09031048 -0.074428186 0.04101848 0.044280205 -0.099496216 0.026505783 -0.04205531
-0.06209937 0.084670596 -0.036356 0.009564149 0.05437515 -0.082419015 0.072796986 0.051204734
-0.0061350474 -0.00984655 0.05775015 0.002935066 0.10935 -0.03386644 0.08410619 0.062030517

ll2.bias f4 [128]
00000000: 785b aa3c 731d 7ebc 6d85 c13b 88d6 ea3c
00000010: 795f a93c 5cf7 073d 10e7 4ebd 1bb1 a33d
00000020: 02b0 61bc d091 053c d3e3 f73c a799 4cbd
00000030: 9729 8f3d c071 8bbc 3da4 653c 57d0 e53c
00000040: 076a 73bc a607 703d e14e 9bbb 08c1 9e3d
00000050: 7ab1 6dbb 9ac2 4ebd 9cc0 a9bc 9d78 6a3d
00000060: 434d 463d 7e6d 67bd cf5b 093d 9e49 b5bc
00000070: 597b 553d 27e8 7c3d 5e57 aebc 2c0d 163b
00000080: 89fd 173d bd04 2e3d a894 b5bc 3cd5 1c3d
00000090: 4e1e e93c 14fd 8e3d b742 3d3d 9ff0 d53c
000000a0: 03f0 04bb c5e9 4d3c c80d 053d fb36 5dbd
000000b0: 5cfc 333d fd60 923d c53b adbc b99d 69bd
000000c0: 7d25 d53c 5b7b 143c 40f4 0e3c 544c 4b3c
000000d0: 350f 03bc 439d 1a3d 144b 473d 42ca 953c
000000e0: dd09 6f3d be73 133c 1a69 d93b 0d41 ba3d
000000f0: 0a46 953c c970 a13c 2500 633c d42a 203d
00000100: 5e95 693d 5534 14bd 9f8c 2a3d 1e27 703c
00000110: 6c69 073d 6593 10bd 3132 50bc e1cf 303c
00000120: 1f6d 093d f342 8b3d 92a1 d6bb 5341 863d
00000130: 8d3e 233d 5501 f53c b21d 043d 537a 5e3d
00000140: 9fa7 503d a2cf 8c3d 9406 b23d 129d 5d3c
00000150: 45b2 503c 28bd 22bd 91fb 493c f5a6 c13c
00000160: 532e eb3c fe73 94bc 5b18 6c3b a848 7a3c
00000170: 8f49 0dbc f77f a1bc 6cd2 033d 31a2 383c
00000180: 74cc 943d 55d4 063d 021d 423d 5e6c 76ba
00000190: 6d2f 613c 9a82 a43c 1598 2e3c 48e5 5dbc
000001a0: 2785 e4bb dc3c 49bb 0885 8cbc 6297 893d
000001b0: c7c2 fe3b 5f1b 3f3d 2096 8d3d e7aa 723d
000001c0: 9154 0fbd 85d7 8d3d ed7b 803d 0f06 cc3d
000001d0: 0d73 033d d114 9e3d 72bd 063d 54ca 83bc
000001e0: 3eab 7b3d f8be 6dbd da1f b83c c48b a13d
000001f0: 6484 123d bc05 b23b 17d8 0e3d fc68 963c
0.020795569 -0.015509951 0.005905798 0.02866675 0.020675408 0.033194885 -0.050513327 0.079927646
-0.013774874 0.00815244 0.030260002 -0.04995122 0.069903545 -0.017022014 0.014016208 0.028053446
-0.014856822 0.058601044 -0.0047396277 0.077516615 -0.0036269114 -0.050478555 -0.020721726 0.057243932
0.048413526 -0.056500904 0.03353482 -0.02212983 0.052119587 0.061744835 -0.021281894 0.0022896035
0.037107024 0.042484988 -0.022165611 0.038289294 0.028456833 0.069818646 0.046206202 0.026115714
-0.002028466 0.012567942 0.032483846 -0.05400751 0.04394184 0.07147405 -0.021146664 -0.05703518
0.026018852 0.009062613 0.008725226 0.012408335 -0.007999231 0.037747633 0.048655584 0.01828492
0.058359016 0.008999763 0.0066348435 0.09094439 0.018221874 0.0197071 0.013855015 0.039103344
0.057027213 -0.03618272 0.041638013 0.014657764 0.033059523 -0.035296816 -0.012707279 0.01079175
0.03355133 0.06799879 -0.0065500224 0.06555428 0.039854575 0.029907862 0.032254882 0.054315876
0.050941106 0.0687554 0.08692661 0.013526218 0.012737815 -0.039731175 0.0123280445 0.023639182
0.028708613 -0.018121716 0.003602526 0.015276112 -0.008623495 -0.019714339 0.032183096 0.011269138
0.07265559 0.03291734 0.047390945 -0.0009400303 0.013744217 0.020081807 0.010656376 -0.013543434
-0.006973881 -0.003070644 -0.017153278 0.06718327 0.007774684 0.046656962 0.069134 0.059245016
-0.03499276 0.06925873 0.06273637 0.09962093 0.032092143 0.07718814 0.032895513 -0.016087689
0.061442606 -0.05804345 0.022476126 0.07887986 0.03577079 0.0054328125 0.034874048 0.018360607

ll5.weight f4 [41, 128]
00000000: 5b83 8a3c ddd3 a0bd b481 19be 998e 86bd
00000010: afa6 23be 1ee2 fb3c b1bb 8cba 6372 9a3d
00000020: f500 183d 3bc1 34be e3ce ff3c 5055 0ebd
00000030: 34cd 34bd 8f61 03be 4dcf 40be 3ccd 3e3d
00000040: ad89 f23d 68d4 0bbe 8cbc 40be 11ce 3ebd
00000050: 984e 913a 3b41 cdbd 5a28 15be fe51 26be
00000060: 561d edbd f7a6 343d 643b 08be 2e63 c6bd
00000070: 6b13 55be 0291 d2bd 4f24 6a3c 6048 2d3d
00000080: 4780 4cbe e676 47be aba3 47be bc5d b1bd
00000090: 4bef e2bd 419c 7a3c 7a59 acbd ef7e d6bd
000000a0: 6b22 fa3d 4509 123d 7cc2 47be cae1 7f3d
000000b0: ba16 8dbd b26f 16be 58c8 9f3d 0f7e 27bd
000000c0: 5a1e 47be b004 95bd 5a73 c03b d27e 863b
000000d0: 8de4 613d 0d56 093e 7653 65be a2fb ae3d
000000e0: 6bc5 3f3e 75f4 12bd a3ba 733d 3efb 783d
000000f0: cf6f ab3d 0869 983d 1c20 88bd 492b 573c
00000100: db7c d63d e5f5 f93c 5978 ad3d 16f4 5dbd
00000110: b518 a93d e3dd 92bc 5c37 4cbe 0a7d 3cbe
00000120: 60f0 44ba 8375 1ebe 9f6b 163d 7b0d f03c
00000130: fd8b 5cbe 1427 9d3c f905 b03d f136 9ebd
00000140: 6ca7 9dbd 2610 24be eb30 cf3d d586 ec3d
00000150: dd17 693d fea6 e0bc 6a19 86bd 8ed9 c7bd
00000160: 2a4e b33d 5fca 4cbb 2f96 91bd a5b6 bcbd
00000170: 8d91 c13d 8b95 ac3c 4f2b 8d3c 3171 3abd
00000180: 8f2b 923d a188 2fbd 3979 9a3d 707c ddbc
00000190: 5c3a 873d 07d2 fd3b 47c3 34be c89e 0b3e
000001a0: f51c 1fbe e5f6 ca3c 6246 73bd ed1e 54be
000001b0: 718b 31be eac1 25bd 7b9d 0e3d d46c c4bd
000001c0: aebe 053e f5de 443d f1e6 d93d ae07 d63d
000001d0: 4b71 8dbd b20f 4dbd dab8 053d 326b a4bd
000001e0: e0a7 c03d 2e69 5cbb 7d6e 85bd 11b0 323d
000001f0: bd7c c8bb 7f08 f73b 8751 993d 7816 0cbe
00000200: 4458 0f3d b345 7d3c 0560 8dbd 7775 493d
00000210: 45ca 0dbe 9ef9 753d c7b4 053d dc5c 6abe
00000220: eaa2 5cbe e157 353d 65ca 8b3d 34cb 54bd
00000230: 4a8e cbbd 90c1 d83d 0079 633c 3747 073d
00000240: 7f6b c3bd 24cb fabb 5906 dabd e878 42be
00000250: d776 8cbd 60cb 99bd 2fbf c7bd 80eb 68bd
00000260: 902f 8abd e0a5 8fbd 3e1d 94bd 43f1 a33d
00000270: 93ac 2dbc 890c 93bd df86 fdbc fe25 03be
00000280: 9c11 09be 474f 34bd dd59 fb3d 1f03 03bd
00000290: 659c 39be 229c 8a3d 587b c0bc cea1 fa3b
000002a0: 5ac3 ef3a d7a5 1abc 883d 843d c1e6 3a3d
000002b0: 45ff 333d 801f 44be b94a 333d 6ecf cf3c
000002c0: 6b49 043d 066d c2bd 45cd 893d f3c4 be3d
000002d0: 9a8f 28be 2343 8cbc 53d8 983d c7d5 eb3c
000002e0: b6ac 0cbf 5efc 0abc ae99 d2bc 7381 40be
000002f0: 6fc3 10be da67 f4bc 7208 5bbd 9875 02be
00000300: 93ad 5fbd d361 713b 7066 803d 5f2e dcbd
00000310: f463 943d 415c dc3c b8e7 83bd cf61 2abe
00000320: f297 62bd 39e3 4f3c 661c fe3d 9e7c d0bd
00000330: 1d5b c4bd fc9d ccbc 8fb5 7fbd b408 963c
00000340: 61c5 fe3c 8968 a0bd 1af1 efbd cf95 f5b9
00000350: e3c7 ca3d edfc 96bd 2ac2 9cbd 4f9b ff3c
00000360: f18b 1bbe 0975 e4bd dc34 bbbd a075 efbd
00000370: ad58 2abc 97eb 433d be0e dfbd 704a c0bd
00000380: 7ca7 7dbd f977 1b3c b274 88bc 0006 1f3d
00000390: 0dc6 94bd 816a 613d 3a4e aebc 7a06 38be
000003a0: 0c62 cdbc 6054 aabd 5462 3abd 6903 d53d
000003b0: 1fa6 6f3d e6bf e1bc e79d e93d a967 783d
000003c0: 2049 50be 4637 2d3c 7e25 32be 366f ec3d
000003d0: 84db 4ebc d0d6 bc3b 7a80 103d b949 21bd
000003e0: efb2 b33d d034 8f3b 8a24 8dbc bb1e 63be
000003f0: 2138 fbbd 7a02 05bc 82e0 90bd 83f9 633d
0.016908338 -0.0785291 -0.14990884 -0.06570167 -0.15981553 0.03074747 -0.0010737089 0.07541349
0.037110288 -0.17651837 0.031226581 -0.03474933 -0.04414101 -0.12830184 -0.18829079 0.046582446
0.11842666 -0.13655245 -0.18821925 -0.04658324 0.0011086045 -0.10022207 -0.14566174 -0.16242215
-0.11577861 0.044104543 -0.13303906 -0.09686886 -0.20808189 -0.10281564 0.014290883 0.04230535
-0.19970809 -0.1947895 -0.19496028 -0.086604565 -0.11080798 0.015296043 -0.08415504 -0.104734294
0.12213596 0.03565337 -0.19507784 0.06247119 -0.068891004 -0.14691046 0.078018844 -0.040891703
-0.19445172 -0.07276285 0.005873126 0.0041044736 0.055149604 0.13411732 -0.22395119 0.08544089
0.18727653 -0.035877664 0.059504163 0.06078648 0.08370935 0.07441908 -0.066467494 0.013132879
0.10473033 0.03051276 0.0847022 -0.054187857 0.082566656 -0.01792807 -0.19942993 -0.18407074
-0.00075126253 -0.15474515 0.03672373 0.029303303 -0.21537776 0.019183673 0.08594889 -0.07725323
-0.07697949 -0.16021785 0.10116752 0.11549155 0.056907523 -0.027423378 -0.06547816 -0.09758292
0.08755143 -0.0031248552 -0.07108723 -0.09214524 0.0945159 0.021067401 0.017232565 -0.045518104
0.071372144 -0.04285491 0.07542653 -0.027036875 0.06602928 0.0077459845 -0.17652617 0.13634789
-0.1553839 0.024775932 -0.059393294 -0.20714922 -0.17338349 -0.040468134 0.034818154 -0.0959107
0.1306102 0.04806419 0.10639752 0.104506835 -0.069063745 -0.050063796 0.03264699 -0.080282584
0.094070196 -0.0033632028 -0.065152146 0.04362494 -0.0061183856 0.0075388546 0.07486253 -0.13680446
0.034996286 0.015458512 -0.0690308 0.04918429 -0.13846691 0.060052507 0.032643106 -0.22886986
-0.21546522 0.04427326 0.06825713 -0.051951602 -0.09939249 0.10583794 0.013883829 0.0330269
-0.09541988 -0.007653611 -0.10645742 -0.18991435 -0.068586044 -0.07509494 -0.09753262 -0.056865215
-0.06747353 -0.0701406 -0.0723214 0.080050014 -0.010600227 -0.07180125 -0.0309481 -0.12807462
-0.13385624 -0.044020917 0.122729994 -0.0319854 -0.18126066 0.06768061 -0.023496315 0.007648683
0.0018292472 -0.009438953 0.06457049 0.04563022 0.043944616 -0.19152641 0.043772433 0.025367465
0.03229658 -0.09493451 0.06728605 0.09314909 -0.1646103 -0.017121857 0.074631356 0.02878846
-0.54951036 -0.008483021 -0.025708046 -0.18799381 -0.14137052 -0.029834677 -0.05347485 -0.12740171
-0.054608893 0.003683199 0.062695384 -0.10751032 0.07245627 0.026899459 -0.06440681 -0.16638874
-0.055320688 0.012688451 0.1240776 -0.10180019 -0.09587691 -0.024977677 -0.062429007 0.018314697
0.031099977 -0.078324385 -0.11715908 -0.00046841658 0.099014066 -0.073724605 -0.07654221 0.031201987
-0.15190102 -0.11155135 -0.091409415 -0.11692357 -0.0103971185 0.047832098 -0.10891484 -0.09389198
-0.061927304 0.009489053 -0.016657207 0.03882408 -0.07264338 0.05503321 -0.021277536 -0.1797122
-0.025071166 -0.083168745 -0.04550393 0.10401041 0.058508035 -0.027557325 0.114070706 0.060645733
-0.20340395 0.01057226 -0.17397115 0.11544649 -0.012625579 0.0057629123 0.035278775 -0.039376948
0.08774363 0.0043703094 -0.017229337 -0.22179691 -0.12266565 -0.008118266 -0.070740715 0.055657875

ll5.bias f4 [41]
00000000: 7f47 bc3d 84a7 a2bd a2e5 8cbd a4b7 ce3c
00000010: c9ca 3e3c 085d a03d e1b8 3bbd 8e7f 083d
00000020: 3787 e8bc fe0b 18bd dce3 253d d297 543d
00000030: 1d01 9dbd 1cee 2e3d 6a64 993d fcd9 df3c
00000040: 31c1 683d 8872 b03d c3bd 093b 7b32 8bbd
00000050: 11f2 ad3d 65f1 f73b 8033 58bd 5141 3cbc
00000060: e7fc 81bd 2a7b 62bc af48 af3c cdc1 64bd
00000070: 0c9d 28bd 4d20 85bd 9cd1 c63b 7b71 cbbc
00000080: c2d1 35bd 7f2e 903d 9a09 d9bb 3e1d c93d
00000090: f0a7 90bd 9ce6 c5bc d79d de3c 91bb 813c
000000a0: fc6f a7bd
0.09193324 -0.07942107 -0.068797365 0.025234051 0.011645027 0.07830244 -0.04583061 0.03332477
-0.028384788 -0.03712081 0.040500507 0.0519026 -0.07666228 0.042707548 0.074898556 0.027325623
0.056824867 0.08615595 0.0021017648 -0.06796738 0.08493436 0.0075666183 -0.05278349 -0.011490182
-0.063470654 -0.01382331 0.021396963 -0.055848885 -0.041165397 -0.065003015 0.006067468 -0.024834385
-0.044389494 0.070401184 -0.006623459 0.09820031 -0.070632815 -0.024157815 0.027174873 0.015836509
-0.08175656
