cs145_m20.pt (torch, 844183 bytes, 6 tensors)

weight f4 [512, 131]
00000000: 969c ef3c cd1c c73c d4d3 ba3c 0572 a2bd
00000010: 7bd7 073e 7b30 8bbd d778 cb3d 4b17 05bd
00000020: 5aa8 e83d ad66 52bc 8aaf fb3d 8395 31bc
00000030: 29d3 e5bc 3357 233e 2a22 9dbd 7622 6cbd
00000040: 0f2a 39bd 602a cc3d eaa6 71bc cc83 e13d
00000050: f4f3 663c 2e0a 04be 60c8 cdbd 850b d13d
00000060: b337 5abc 9034 c33d ee80 efbd d075 bebd
00000070: 56b3 153e 2990 01be 6cd7 bc3d 98c5 163d
00000080: e979 163d b2b6 c7bb a439 073e 2e3f 083e
00000090: a8a3 41bd ee13 293d dc0f ce3d 237b 4e3d
000000a0: a897 38bd a3c2 6abd 5a34 b7bd 7ce7 d6bd
000000b0: bace 0e3d ceb1 b63d 81fd e2bd 3e80 a73d
000000c0: 8f97 0dbe 18b9 a43c 7855 193d e808 123e
000000d0: 4f40 633d b872 903d 1648 023e 2be1 a6bd
000000e0: ddb9 2a3e 1e9c b23d d0a0 393c 10d3 22bc
000000f0: ea2e c9bd c3f3 023e 0774 493c f64d 773c
00000100: a388 edbc a83c 1d3e 4644 bb3d 3a14 893d
00000110: 0cf9 ccbc 7312 49bd db66 37bd 42f0 a3bd
00000120: 4264 103d 9ef6 afbd 5ab9 f3bd e4b0 993d
00000130: f037 113c d42e abbd c87a e43d 0215 84ba
00000140: ebd5 07bd 9283 9f3d c4bf 7ebd 34f7 863b
00000150: b600 b0bc b891 8e3d 56ad e63d c2d6 12bd
00000160: 92ff 4abd 2514 58bd a966 eebd 0023 b2bd
00000170: 052e ccbb 2b1c 383d 0ff3 bf3d a35e 88ba
00000180: b0ca c8bd 7a4d 47bd de99 a93d 9e9f cf3b
00000190: 9380 043e fca6 92bd 6163 c23a 9960 d33c
000001a0: f4db cd3b e328 1ebd 91c0 b1bd 466a 7dbd
000001b0: 0c5b e03d 8808 05be 9e07 9abd 894d 903c
000001c0: 9541 0f3e 0b19 093c 56fc 22bd 2893 d13d
000001d0: 3337 263d 4b2f 5cbb 09c4 38bd 650e 17bd
000001e0: 1a4c c43d 0a75 fdbd 89d3 0b3e 86cd ce3d
000001f0: 62cf 0e3d 1824 a93c cc2a c2bd 2e86 113e
00000200: 9271 323e 86b5 9cbd c038 c6bc 38f6 3b3b
00000210: 5781 ed3c 45cf e4bd 4107 5cbc 557f d9bd
00000220: a77e 85bd ccb6 d03d 126e 843c 6a32 dfbd
00000230: 7390 443d 85ca a5bc 46f8 77bd 2a9f fbbc
00000240: c14d fe3d 5f58 113d 66a6 183d 9efe c0bd
00000250: 39b3 eabc dc8b fb3c 4b05 f7bd d687 593d
00000260: a6de 733d 18ce e93d 1dbe d13d 194f bfbc
00000270: 304b 21bd 6e67 623d 2fa5 adbc 0813 763c
00000280: f6ea f23d f1ff 023e c535 8e3c 603a b03c
00000290: 9afb eebc b213 9abd 5a71 55bd 06f6 ecbd
000002a0: 8b16 b53d 4c05 873d 7add 46bc b6f6 873c
000002b0: 326f c83b 805c bebc 8ae6 8d3d 6c26 6bbd
000002c0: e199 9c3c 9724 933c 09c1 c2bc c426 3abd
000002d0: e0cc b33d 5c81 9fbd a0aa 8f3d ff23 263d
000002e0: 015e 1e3d 73bb 103e 9c95 b0bd b7fe d23c
000002f0: c0d1 95bd b415 cbbd efe8 f0bd a606 8cbd
00000300: 1f91 b13d bcfa 23bd f84c e6bd 16b3 4f3d
00000310: a90a d83d e4d1 8f3c 9ecd c3bb 8871 6abd
00000320: a87a 11bd ada1 37bd 9962 7b3c af96 153d
00000330: a709 04bd 250c 643d 9f3a 15bd 8cfd 37bd
00000340: 6808 6fbd 3d1f 99bd 5313 bebd 8c92 41bd
00000350: 26d6 7f3d 1cef 7bbd 8f88 e8bc a394 a0bc
00000360: 856a 173d b356 2bbd ecc1 9bbd 5814 7fbc
00000370: 1707 79bd e311 9abd 9a4b 9ebd 9398 53bd
00000380: 856e f53d 4d5e 40bd 4b90 c43d aa1d b8bb
00000390: 74c1 82bd a0a9 6cbd 58bc 5d3d 7c65 bcbb
000003a0: 3b95 80bc f405 6b3d 5946 acbd 8638 dfbc
000003b0: b2ec cd3d dd1e ddbd f49c 8bbd 7e42 48bd
000003c0: b8b9 a63c 4b8d 32bb 1f78 ac3d d795 d43d
000003d0: b903 2fbd 5e77 97bd 8828 ed3c 0dff d9bd
000003e0: 6c34 a7bd ab90 80bc a955 103d fe57 7ebc
000003f0: de6b 8cbd 2927 0e3d 6c17 e03d e3ac 3ebd
0.02924947 0.024305725 0.022806086 -0.07931904 0.13265793 -0.06796356 0.09935158 -0.032492917
0.113602355 -0.012841863 0.12289341 -0.010838869 -0.02805479 0.15951233 -0.07672532 -0.057650052
-0.045206126 0.0996902 -0.014749268 0.110114664 0.014096249 -0.12894508 -0.10047984 0.10207275
-0.013318944 0.0953151 -0.11694513 -0.09299815 0.14619192 -0.12652649 0.09220776 0.036809534
0.036737356 -0.006094777 0.13205582 0.13305351 -0.047275215 0.041278772 0.10061619 0.0504104
-0.045066506 -0.057314526 -0.08945532 -0.10493371 0.03486512 0.08920632 -0.11083508 0.08178757
-0.13827346 0.02010779 0.037435025 0.1426121 0.05548125 0.07053131 0.12722811 -0.08148416
0.16672464 0.08721183 0.011329845 -0.0099380165 -0.09823401 0.127883 0.0122957295 0.015094271
-0.028995818 0.1535517 0.091438815 0.06693311 -0.025021099 -0.04908986 -0.044775825 -0.0800481
0.035251863 -0.0859196 -0.119005874 0.07504442 0.008863434 -0.08358541 0.11156231 -0.0010077062
-0.033162992 0.07788767 -0.0621946 0.0041188244 -0.021484714 0.069613874 0.1126353 -0.03584934
-0.049560137 -0.052753586 -0.116406746 -0.08698082 -0.006231072 0.044948738 0.093725316 -0.001040418
-0.098042846 -0.04865787 0.08281301 0.0063361665 0.12939672 -0.07160756 0.0014830643 0.025802897
0.006282324 -0.03861321 -0.08679307 -0.06186893 0.10954866 -0.12991536 -0.07520984 0.017615097
0.13989861 0.008367787 -0.039791428 0.10233146 0.040579986 -0.0033597525 -0.04510883 -0.036878962
0.09584828 -0.12375839 0.13654913 0.10097794 0.034865744 0.020647094 -0.09480819 0.14211342
0.17426136 -0.0765181 -0.024196982 0.0028680693 0.028992338 -0.11172346 -0.013429464 -0.1061999
-0.06518298 0.10191116 0.016165767 -0.108982876 0.04798932 -0.02023817 -0.060539506 -0.030715544
0.12417174 0.035484668 0.037268065 -0.094235644 -0.028649913 0.030706339 -0.120615564 0.05310806
0.059538506 0.114162624 0.10241339 -0.023353146 -0.039378345 0.05527442 -0.02119693 0.015019186
0.118612215 0.12792946 0.017359624 0.02151221 -0.029172707 -0.07523288 -0.052110054 -0.11570363
0.0884219 0.06592807 -0.012137765 0.016597133 0.006116771 -0.023237467 0.069287375 -0.05740969
0.019116344 0.017961783 -0.023773687 -0.045447126 0.08779311 -0.07788345 0.07014966 0.040561672
0.038663868 0.14134006 -0.08622286 0.025756223 -0.07315397 -0.09916249 -0.117631786 -0.068372056
0.08670258 -0.04003404 -0.112451494 0.0507079 0.10548908 0.017556138 -0.005975439 -0.057237178
-0.035517365 -0.04483192 0.015343332 0.036520656 -0.032235768 0.055675644 -0.03643286 -0.044919536
-0.058357626 -0.07476661 -0.092810296 -0.0472589 0.062460087 -0.06150733 -0.028385429 -0.019602126
0.03696682 -0.04183073 -0.07605347 -0.015568815 -0.060797777 -0.07522943 -0.077292636 -0.051659178
0.119839706 -0.046964932 0.09597834 -0.0056187706 -0.063845545 -0.057778955 0.054134697 -0.0057494026
-0.015696159 0.057378724 -0.08411855 -0.027248632 0.10054912 -0.10796902 -0.06817046 -0.048891537
0.02035223 -0.0027244862 0.08421349 0.10380142 -0.04272816 -0.07395814 0.02894999 -0.1064435
-0.081642956 -0.015693983 0.035237942 -0.015523909 -0.068565115 0.034705315 0.10941967 -0.046551596

bias f4 [512]
00000000: 8f44 153e 9cf3 5a3d 515f b0bc 9fa0 b93c
00000010: 7497 c33c 198f 1f3d fe40 a13d c661 eb3d
00000020: 44b7 173e 5e3f b03c 92a1 253d d912 213c
00000030: ac30 713d 1379 b43d 1aea d93d fb2c 503d
00000040: 41c1 1b3e 27c5 c13d 79a3 013e 5c73 be3c
00000050: fe04 293e fa92 b53d 9f66 ce3b e311 223e
00000060: 778c 943c 9f4c a43d 446f 033e c778 d0bc
00000070: c1d1 2b3e ae04 0c3e e6c4 6c3d e2af bdb9
00000080: c6bf 243e 637d 433d ee8b 993d 679a babb
00000090: b057 bf3d dcee ed3d ed1d 033e b183 2e3d
000000a0: 32a1 153e c489 b53d dc57 2b3d eb2e 3d3e
000000b0: a609 a13d 41eb 3b3e debe 493d a48d 163e
000000c0: 72a2 ac3c e13b 8e3d 5a94 d33d 1198 873d
000000d0: 587b 553c 9af8 203d da7f 033e 7f3e f83d
000000e0: 61ff 1c3e 7c51 0f3e 48cd 143e a871 e2bc
000000f0: 75e6 b03c cb4e cc3d 25b8 b43d 85c0 443d
00000100: 53d7 0f3e c458 c13d 2b73 0d3d 7100 d53c
00000110: c795 423c a74f ff3d b8f7 933d 9bcf af3d
00000120: 32ec 303e 756c df3d cada 953d bdcf 683d
00000130: 2e4f 2c3e b202 d53d 7870 fb3d b966 703d
00000140: 999c aa3d 0a54 393d e39a 203d 6971 dc3d
00000150: c64c 5a3d 910a 9e3d ac84 f13d 9cec 943d
00000160: 8e37 eb3d dbe6 cb3c 80ba 0e3e 3d3a 60ba
00000170: 50b6 ad3d 4722 153e 6bb7 373e a984 1c3d
00000180: e59e bb3d dc65 e93c f4e4 0a3e d3b5 d23d
00000190: 18ba bb3d 9bc3 033d 2709 ac3d be9d b3bc
000001a0: 6680 813b 8a9a 93bc e278 043e 79d6 913d
000001b0: 776b f33d d727 1d3d e769 b63d 4061 3f3d
000001c0: a6fd f53d 9b27 f43d 10a7 72bc 0a61 c63d
000001d0: c3a7 133e ddaa 543d ca0a 2f3c 83a4 e33d
000001e0: afdf d63d fd13 3c3c 2ec4 a83d 8ecd 493d
000001f0: 7953 2a3d 8c5a c93d 5379 053e 52da 0c3d
00000200: a6c9 993d 00bf 883d b6a8 e13d 594e 023e
00000210: 6560 8b3d d926 a43d 21b5 ac3c 3a3c 003e
00000220: 7c2b 1d3d cf2f b83c 1eef 233e 0a95 273e
00000230: 70d3 f43d 6e0e af3d 238a fa3d 5613 963d
00000240: 0379 2b3d 64dd b63c 6d3d 2cbd c39d 213e
00000250: 2c24 043e 51c8 893c 3437 223e 8725 283d
00000260: 66de d63d ec33 c93d 6c18 d23b 0ebf 9f3d
00000270: 4d3d 0b3e 1da6 993d 19e3 223d ea4c f53d
00000280: ded4 383d abdc db3b e34a c63d e091 393d
00000290: 32f8 2f3e f522 f93c 84c4 123e fa7b dc3d
000002a0: 635a b73d 8850 003e fd02 b73d f2be 913d
000002b0: 0c56 7a3c dd34 bc3d bffc 513d 9b51 873c
000002c0: 35a3 243b 4b71 cb3d c622 963d 8409 103e
000002d0: ac11 283e 0148 0e3e c174 1f3e 3950 0e3e
000002e0: e546 fd3d f9e2 253e 1d0f 133c dc78 b33d
000002f0: 9b00 233e c4d8 8b3d 775d 003e 7386 58bc
00000300: 0811 b53d fd6f 0f3e acb9 a53d 8a21 063c
00000310: 57fa 8e3d 5d7f e03d 195d 133d 105b e43d
00000320: 9e96 273d e198 5b3c a8f7 d03d d4c2 043e
00000330: 772c ea3d f9ed 0a3e f730 833d f4d2 363d
00000340: 6439 e63d 64ed a23d 5d01 2d3d 56da 133e
00000350: 2312 763d 283e 863d 1f41 cb3b afbb f43d
00000360: c1bd dc3d f1de d13c 6b66 583d 154a b93d
00000370: f07f 893d 8dbc 6a3c 07ab 1d3d 6a9e d53c
00000380: 4f4a e03c 2e7d d83d a1bd 8a3d dc02 a93d
00000390: bec8 823d 183b 033e bf2a 953d 21b3 eb3c
000003a0: 6b95 ad3d a00e a53d a4cf 9c3c 4688 303d
000003b0: 4fc4 9a3c 0549 68bc 62dc a43d 2878 333e
000003c0: 37bf 573b d5b6 bb3d 0820 ea3c cf5c 58bd
000003d0: 76af 0a3e a4ea 423d 7afc b23d a5d5 303e
000003e0: bd8b ac3d 7b8c 1b3e e4d9 c53d a1be 5b3d
000003f0: a5df f23d 2803 b33d a391 353d 0609 563d
0.14576934 0.05345498 -0.021529825 0.022659598 0.02387593 0.038954828 0.078737244 0.11493258
0.14816004 0.02151459 0.04043729 0.009831154 0.058884308 0.088121556 0.106403545 0.050824147
0.1521044 0.09461432 0.12660016 0.023248367 0.1650581 0.08865924 0.0062988545 0.15827136
0.018133385 0.08022427 0.12835413 -0.025448216 0.16779234 0.1367366 0.057804964 -0.00036179932
0.16088781 0.047727 0.074973926 -0.0056946757 0.09342897 0.116178244 0.12804385 0.04260606
0.14612272 0.08864167 0.041831836 0.18474929 0.078631684 0.18351461 0.04925429 0.14702469
0.021073554 0.06945015 0.1033103 0.06620801 0.013029896 0.039299585 0.1284174 0.12121295
0.15331794 0.13995928 0.14531434 -0.027642086 0.021594265 0.09975966 0.08824185 0.048035163
0.14046983 0.09440759 0.03453366 0.026001187 0.01187653 0.12466364 0.07224983 0.085845195
0.17277601 0.109093584 0.07317121 0.05683874 0.1682708 0.10400905 0.12277311 0.058691714
0.0833065 0.04524616 0.03921021 0.10763819 0.053295873 0.07716859 0.11792883 0.07271692
0.114852056 0.024890354 0.13938332 -0.00085536 0.08482039 0.14563857 0.17941062 0.038212452
0.09161166 0.028490953 0.13563901 0.102885865 0.09166354 0.032168966 0.08400183 -0.021925803
0.003952074 -0.018018026 0.12936738 0.071209855 0.11885732 0.038368072 0.08906918 0.046723604
0.1201127 0.11921617 -0.014810339 0.096864775 0.14419465 0.05192076 0.010683725 0.111153625
0.10491883 0.011479375 0.08240543 0.049268298 0.041583512 0.098317236 0.13034563 0.034387894
0.075091645 0.06677055 0.11018507 0.127252 0.06805495 0.08015222 0.021082463 0.12522975
0.038371548 0.022483734 0.16009185 0.16365448 0.11954391 0.08547674 0.12233379 0.07327907
0.041863453 0.022322364 -0.042050768 0.15782838 0.12904423 0.016819151 0.15841371 0.041051414
0.10491638 0.098243564 0.0064116027 0.07800113 0.13597603 0.07502387 0.03976736 0.11977561
0.04512488 0.0067096553 0.09682252 0.045305133 0.17184523 0.030412177 0.14332777 0.10765834
0.08952787 0.1253072 0.08936117 0.07116498 0.015279304 0.0918977 0.051266428 0.016518405
0.0025121693 0.09933718 0.07330851 0.1406613 0.16412991 0.13894655 0.15571882 0.1389779
0.12367038 0.16199864 0.008975771 0.087632865 0.159182 0.06828454 0.12535654 -0.013215649
0.08841139 0.14007564 0.08092055 0.008186707 0.06981342 0.109617926 0.035977457 0.11150181
0.040915124 0.013403148 0.10203487 0.12964946 0.11434262 0.13567342 0.06405824 0.044634774
0.11241415 0.07955435 0.04223763 0.14438757 0.06007589 0.06554824 0.0062028314 0.1194986
0.1077838 0.025619002 0.05283205 0.09047333 0.06713855 0.014327181 0.038493183 0.026076514
0.027379183 0.10570751 0.0677445 0.082524985 0.06385945 0.12815511 0.07283544 0.028771939
0.08475765 0.0805943 0.01914198 0.04309871 0.018892435 -0.014177565 0.08049847 0.17526305
0.003292037 0.09165732 0.028579727 -0.052822884 0.13543496 0.047587052 0.08739562 0.17268999
0.084250905 0.15190308 0.096607 0.053648595 0.11859063 0.087408364 0.044328343 0.0522547

weight f4 [256, 512]
00000000: 4979 d43c 0eed 59bd a263 c1b9 c457 cdbd
00000010: 1f72 183d aefc 00bd 54f2 d1bc a400 c73d
00000020: 0490 c53d d818 c23d 4f8f 2fbd 5d4b 183d
00000030: 6d51 f03d b012 08bc 66e5 0fbd a14d 8abd
00000040: 908b f83d 07bd 653d be1c 843d a497 fd3c
00000050: d88f b83c 40eb 15bc f634 a6bb b11b 8f3d
00000060: fcf5 f3bc 960b 3dbd 27ea 2e3d b2e2 523d
00000070: 5c19 d23d ce98 a23d bc27 b13d 4e11 133c
00000080: f1ec 81bd 8497 8e3c 7bed 9fbd f380 9b3d
00000090: 9ad2 5a3d 1432 143d 4994 eebb 23fe 9739
000000a0: 0b71 6e3d cedb 333d dd27 ff3d 6286 a33d
000000b0: a35c 28bd df73 ac3d 77f5 8b3c 950f 7ebc
000000c0: 5ce7 c9bc 4020 733c 339f 133d 2f6f 25bd
000000d0: 84dc 83bc 00d2 acbc e977 3abc 6299 a73d
000000e0: 79aa ed3d ecf1 403d bfa1 a53d b571 ddbc
000000f0: 02cc f9bc 6217 143e 35e1 9c3d 5c0a 3b3d
00000100: 9f99 c5bc 8f93 ad3c ed33 69bd 0c7a 923d
00000110: 2df6 89bd 9421 31bc 562c 053e a1cd 3fbc
00000120: c0ff 603d e60e 5d3d 78e5 2b3d 0726 d83d
00000130: 3946 963d 683d ad3c 81ee b1bd d881 393d
00000140: 73b1 5ebb 98cb 8bbc 14f1 9c3c 0a34 cabd
00000150: 8bc1 97bd 9372 80bc 5079 443b 48d4 8fbd
00000160: f2ea 923c eaa3 ba3d 7a06 4f3d c53b 9c3d
00000170: ee49 27bd 3bb1 ab3d 3121 ac3d 218a c9bd
00000180: 2c14 743c 6e19 dabb a90d 383d 6022 4d3c
00000190: b063 a5bd e174 07bb 1e9c 28bd e367 66bd
000001a0: 035f dcbc 2fca bb3c afcc 3f3d 9b28 b43c
000001b0: 005f cb3c 09f8 0aba 0fc4 0b3d b3d4 1f3d
000001c0: 5092 68bd ab68 91bc d7a7 1a3d bce4 a23b
000001d0: 380a 393c edf6 1abd 1736 8c3d b30d bdbc
000001e0: 5da9 793c faff 04bd a122 9cbd 65f1 6abb
000001f0: 5df1 9c3d 06cd 753d 5ca3 a6bd 1b84 c9bc
00000200: 8da6 763d f9f9 b0bc 6f1c 02bd 691c d13c
00000210: b75b 91bd 033f e3bc 4ac9 3d3d 98ec 023d
00000220: 887d 14bd 6a5b 2fbd 090e d73d 121a 52bd
00000230: ee3a 383d f958 a23d 9a38 98bd fcd2 4dbd
00000240: fa17 083d e851 dcbb 6fcc 1dbd 1ff0 babc
00000250: 3ff0 a43d b11c 4abd c5a9 703d 5d45 113d
00000260: a8bb 013e 857f 2b3d ab05 ebbc ed26 d7bd
00000270: 250c d73c 4439 0b3d 466c 443d 5710 8d3d
00000280: c296 f23d 289b 8cbd b358 e7bd f53f 9b3d
00000290: e8d6 a03d bb7c 4b3d 51be 50bd 46fc 3abd
000002a0: f9f2 3c3d 9590 d9bc 8b66 4abd bd11 bdbb
000002b0: 5138 913d ae66 053d 71a6 4e3d 8aac 753d
000002c0: 3220 d4bd 729b 9f3d 1a64 8e3c b337 f53d
000002d0: 2ee2 b5bc cc77 9bbd 16e0 a4bd 38b6 6fbc
000002e0: 37a7 00bd bcf2 843c b556 a4bd d21a 713d
000002f0: 8b6c ae3c fa07 c33d 1184 c53d eac5 e13b
00000300: 5315 c73b 3da2 f43c 09cf b13c f574 093d
00000310: 9d84 ccbd b29e b03d 8c10 483d b407 debc
00000320: b8ee c3bd 5b68 c1bd a671 4d3d aba5 db3b
00000330: 1ccc e9bd c5ec cd3d 9788 fbbd 0ceb 1cbd
00000340: 3324 133e 56c2 6e3d 6358 0bbd d7e1 f43c
00000350: 7c0b 123d 3142 e1bd e1d4 873d 5db7 023d
00000360: eaec 143d 23e5 ccbd af10 563d 462c 98bd
00000370: 73ec b5bb dc35 9a3c 999b 613d 112d 243d
00000380: 08e1 80bd 1c06 a83c 042b 893d f739 87bd
00000390: aa57 823d 8977 26bc 679d 78bd 1977 9a3d
000003a0: 031a da3d cdf8 debc a514 bdbd 012d ccbd
000003b0: f6df ab3d eafb 6d3c 0a66 52bd aec7 d33b
000003c0: cc80 87bd 48bd d63d cd65 933d 7194 c8bb
000003d0: 8fa0 703d 11cd 9f3d 5d09 3abd 9a26 f53c
000003e0: 213d 38bc eaef 0fbd a0ae 253c d307 8b3d
000003f0: eb65 143d e0f4 2a3d fb76 803d 007f 3a3c
0.02593674 -0.05320459 -0.0003688606 -0.100265056 0.03721821 -0.031490974 -0.025628246 0.09716919
0.096466094 0.09477395 -0.04286128 0.037181247 0.11734281 -0.008305237 -0.03513088 -0.06753088
0.121359944 0.056088474 0.06450795 0.030956097 0.022529528 -0.009150326 -0.0050722314 0.069877036
-0.02978038 -0.046153627 0.042703774 0.051485725 0.10258743 0.079393014 0.08650157 0.008976294
-0.06344021 0.017406233 -0.07808968 0.075929545 0.0534235 0.03618057 -0.0072808606 0.0002899031
0.058213275 0.043910794 0.12458775 0.07984616 -0.04110397 0.08420538 0.01708482 -0.015506645
-0.024646454 0.014839232 0.036040496 -0.040389236 -0.016096361 -0.02109623 -0.011381128 0.08183552
0.11604781 0.047105715 0.08087491 -0.027031759 -0.030492786 0.14462045 0.07660142 0.045664176
-0.024121104 0.021188525 -0.056934286 0.07152185 -0.067364074 -0.010811228 0.13005194 -0.011706741
0.054931402 0.053969286 0.041966885 0.10554128 0.07337613 0.021147445 -0.08688069 0.045289844
-0.003398028 -0.017064855 0.019157924 -0.09873207 -0.07409962 -0.015679633 0.0029979534 -0.07022911
0.017934296 0.091132954 0.050543286 0.07628588 -0.04084199 0.083834134 0.08404768 -0.09840799
0.0148973875 -0.0066558635 0.044934902 0.012520403 -0.080756545 -0.002066903 -0.04116451 -0.056251418
-0.026900774 0.022923557 0.04682606 0.021992018 0.024825573 -0.00053012423 0.034122523 0.039021205
-0.05678016 -0.017750105 0.03775772 0.004971115 0.01129394 -0.037833143 0.06846254 -0.023077821
0.015238133 -0.03247068 -0.076237924 -0.0035849449 0.07663224 0.06000998 -0.08136627 -0.024599126
0.06021743 -0.021603571 -0.031765398 0.025526242 -0.07097571 -0.027740007 0.046334542 0.031963915
-0.03625253 -0.04281179 0.10500724 -0.051294394 0.044978075 0.079271264 -0.07432671 -0.05025004
0.03322599 -0.006723631 -0.03852504 -0.022819577 0.08053636 -0.04934377 0.058755655 0.03546654
0.12669241 0.04186966 -0.028689226 -0.105054714 0.026250908 0.03399016 0.04795482 0.06887882
0.11845161 -0.06865531 -0.11296215 0.07580558 0.0785349 0.0496795 -0.05096275 -0.045650743
0.046130154 -0.0265582 -0.0494142 -0.005769937 0.070908196 0.032568626 0.0504517 0.059979
-0.10357703 0.07793321 0.017381717 0.119735144 -0.022202577 -0.07591209 -0.080505535 -0.014630847
-0.03140947 0.016229026 -0.080243506 0.05886347 0.021291992 0.09523006 0.0964433 0.0068900483
0.00607554 0.029862517 0.021705167 0.033558805 -0.099862315 0.08624019 0.048843905 -0.027103283
-0.09567016 -0.09443732 0.05015721 0.006703099 -0.11415884 0.10054926 -0.12281912 -0.038310096
0.14369278 0.058290802 -0.03401984 0.029892845 0.035655484 -0.10998953 0.066324 0.03191315
0.03635875 -0.10004642 0.052262004 -0.074303195 -0.0055518686 0.01882451 0.05508003 0.04008204
-0.06292921 0.020510726 0.06697658 -0.06602853 0.06364377 -0.010160335 -0.060696986 0.07542247
0.106494926 -0.027218247 -0.09232453 -0.09969521 0.083923265 0.014525393 -0.051366843 0.0064630127
-0.06616363 0.10485321 0.07197151 -0.006121211 0.05874687 0.07802785 -0.045419086 0.029925633
-0.011245043 -0.03514091 0.010112435 0.06788602 0.03623001 0.041737437 0.06272694 0.011382818

bias f4 [256]
00000000: fc18 3a3d 7cdc c33c 577a 4f3d e4a5 8abd
00000010: 635c 2a3c 1a11 d6bc 4650 3f3c 4a26 febc
00000020: fe99 7ebb 84cf 3bbb 1275 8f3d 6a7a 273d
00000030: 32bb 3f3c 6f71 4a3d a665 483b 0d56 853c
00000040: b954 b43d aa4e d53c 5749 533c a339 2e3d
00000050: d53a 30bd 4fb2 76bd b85f b13c 5ca7 203c
00000060: d908 593d 7604 183d b1df 6ab9 db79 553b
00000070: 99d7 04bd 67c6 ef3c 2045 623c 4a88 c63c
00000080: b052 703d a4a9 223d a5f7 3c3d 6a71 2e3d
00000090: 2f0e 24bd 7b07 78bc dc4d 34bc 7e86 113c
000000a0: da4f 02bd 1907 df3d 8ca7 983b ecb8 4dbc
000000b0: 2345 20bc 3167 d33c fd58 f6bc 75b6 c6bc
000000c0: d76b 4ebc f4da a03d 9f3f a53c 6480 893d
000000d0: 3367 583a b706 513d 0d48 14bd c2a0 e43d
000000e0: 2caa 483d 8e29 9b3c cf8b cb3c 67c5 4b3c
000000f0: e89a 623b e27f 8a3d 25fc 1c3c fe81 5abd
00000100: f1c3 23bd 9024 643c 5780 41bd e579 71bc
00000110: 56de 8c3c 80eb 61bd 1fc8 4bbc 674e 493d
00000120: aac1 123d e418 4c3d be6d 063d bf1b 6dbc
00000130: 48d5 ca3c 5146 88bc d206 d73b b6ad a23d
00000140: aeae bb3b 37c4 cf3c 0afa a8bc 7b16 08bd
00000150: 201a e03c bb0d 8fbb e5ca d03c a947 5d3c
00000160: 740b 8e3d 382e 8c3c c086 2b3d 9f30 18bc
00000170: c72d d7bb ef34 3fbd c7d4 983d e9b1 2dbb
00000180: 6edb 113d 3264 0e3d 9451 1ebc d8cd c4bb
00000190: 7bcb b7bb 8560 14bd ebc2 a0bc 6d31 a43c
000001a0: e95f 443d a8cc 663c 250e 623d 1d8d 9e3c
000001b0: 3752 a4bb 949f 20bd 84ae 0d3d 055e 383d
000001c0: 10a0 29bc 4bdb 423d d6a5 f23c 078b 573d
000001d0: ba1d a43b d631 c53c 3e5a eebc e7b9 43bd
000001e0: 1c97 673d cace 363d 057e 433c 9e97 d8bc
000001f0: 853e 25bd 01b6 dc3b 6718 03bb e980 01bc
00000200: 2f1a 833c cb3b 863b d9e7 28bd 0044 953c
00000210: a01f 09b9 2137 3fbd afc2 013d 1f0b b8bc
00000220: 638e 5c3d 5234 9f3b 8649 75bc 19b7 b03c
00000230: d089 843d 6f90 30bd 9990 0e3d 6493 e9bc
00000240: 1396 133d 369e 92bc ca30 6f3b e62e 6cbb
00000250: 3420 ac3c e0db 9b3c c1c3 07bd 26a4 043c
00000260: 07cc c03d f51b 5d3d 7e43 e83c 0b36 673d
00000270: cc93 19bd 53dc bdba 0865 8c3c 0081 e83c
00000280: e0b2 713c 18a2 b93b 9fe3 8b3c cb20 423d
00000290: 959a f2ba c58f 993d cae6 503d 0a32 b23c
000002a0: 48a1 823d 17e6 ab3c 3c28 3f3d b6dd 023c
000002b0: 4eb7 583d 9ce7 b43c d0d0 053d ad4d 7dbc
000002c0: 7d5a 1b3d 6d72 cd3c a183 a03a 6eb9 a63c
000002d0: 3be2 823c f9c6 34bb 2279 5a3d cb51 df3c
000002e0: df38 f9bb e46a df3d e34d e0bc 7d6d 2dbd
000002f0: 1bc5 c33c f334 4a3d 5653 f0bc bbe5 ad3d
00000300: 323a ab3c 7005 00bd edc2 25ba d8fb 5a3d
00000310: 2a11 bdb8 0b70 943c f17c c63d f772 853c
00000320: c169 3c3d f976 543d 0d11 a93b 9b48 903d
00000330: 0ddc 423d 65dc a83d 3891 ad3d 0a37 14bd
00000340: 1891 163d 6f07 013c 9d70 643c 241b bdbc
00000350: 5711 01bd b275 9f3c 5b3a 32bd 5522 413d
00000360: 3ee1 463c d788 1dbd 1c5e 753c 3f75 563d
00000370: 255b 883d 5675 0abc 8a14 1d3c 7ab6 463c
00000380: 3d0e 173d 3b3c 853d 8f8a 79bd 8319 0abd
00000390: ddae e7bc a9d1 a4bc fbc4 3cbd 784c c4bc
000003a0: 30b9 193d 843a ddbb 9da7 663c 66d0 15bd
000003b0: 2855 093c 8f30 fc3a d091 d43c ab86 043a
000003c0: 2d37 a83d a750 28ba 70bf cdba 3c21 3d3c
000003d0: 109a 3f3d f150 143d 2dd1 453c dcc3 36bd
000003e0: 27af 3d3d 1ff0 053d f47d a9ba 72d3 7e3d
000003f0: d0c6 31bd 99ff 353d 337f 583c 8fa7 a4bc
0.045433983 0.023908846 0.05065378 -0.067699224 0.010398003 -0.026131202 0.0116768535 -0.031024117
-0.003884911 -0.0028657624 0.07004751 0.040888228 0.011702346 0.049424585 0.0030578165 0.016276384
0.08805222 0.026038487 0.012895904 0.042535435 -0.043024857 -0.060228642 0.021652088 0.009805527
0.052986953 0.03711363 -0.0002239931 0.0032573852 -0.032432172 0.02926941 0.013810426 0.02423491
0.058672607 0.039712563 0.04613461 0.04258863 -0.04005259 -0.015138502 -0.011004891 0.008882163
-0.031814434 0.10890026 0.004658645 -0.012556296 -0.0097821085 0.025806041 -0.03007173 -0.024256924
-0.012598953 0.07854262 0.020171938 0.06713942 0.0008255124 0.051031794 -0.036201525 0.111634746
0.048990414 0.018940713 0.02484694 0.012437201 0.0034577195 0.06762673 0.0095816 -0.053346626
-0.039981786 0.013924733 -0.047241535 -0.014738535 0.017195862 -0.05515623 -0.012437849 0.049147036
0.035829224 0.049828425 0.032819502 -0.014471947 0.024759904 -0.016635092 0.0065620923 0.07943289
0.0057276106 0.025362117 -0.02062704 -0.033224564 0.027356207 -0.0043656505 0.025487373 0.013505855
0.06935778 0.017111883 0.041876554 -0.009288936 -0.0065667364 -0.04668134 0.07462459 -0.0026503748
0.035609655 0.034763522 -0.009663004 -0.006005984 -0.0056089736 -0.03622486 -0.019624194 0.0200431
0.04794303 0.01408688 0.05518927 0.019354397 -0.0050146836 -0.039214686 0.03459026 0.04501154
-0.010353103 0.047572415 0.029620092 0.05262282 0.0050084265 0.024071615 -0.029095765 -0.047784712
0.056540594 0.044630803 0.011931901 -0.026439484 -0.040342826 0.0067355637 -0.0020003559 -0.00790427
0.016003696 0.0040964833 -0.041236732 0.018220901 -0.0001307712 -0.046683434 0.031679805 -0.02246624
0.053846728 0.004858532 -0.014971143 0.021571683 0.06471598 -0.043106493 0.034805868 -0.028512664
0.036031794 -0.017897706 0.0036497586 -0.0036038696 0.02101145 0.019025743 -0.03314567 0.008095777
0.09413915 0.05398174 0.028352495 0.056448024 -0.037494466 -0.0014485217 0.01713802 0.028381824
0.01475212 0.005665075 0.017076312 0.047394555 -0.0018509204 0.07498125 0.051001348 0.021752376
0.06378418 0.020983739 0.04666923 0.00798743 0.052909188 0.022083096 0.032669842 -0.015460414
0.037928093 0.025078977 0.001224626 0.020352092 0.015977016 -0.0027584417 0.053338178 0.027260682
-0.0076056565 0.1090906 -0.02738089 -0.042340744 0.023897698 0.049366903 -0.029336613 0.08491083
0.020901773 -0.031255186 -0.00063232967 0.053462833 -9.015419e-05 0.018119833 0.096917994 0.016290171
0.045999292 0.051871274 0.0051595033 0.070450984 0.047573138 0.08245162 0.08474964 -0.0361853
0.036759466 0.007875307 0.013942865 -0.02308423 -0.031510677 0.019465301 -0.043512683 0.047151882
0.012138663 -0.03846058 0.014976051 0.05235791 0.066580094 -0.008450827 0.009587416 0.012128467
0.036878813 0.06505629 -0.060923155 -0.033715736 -0.028281623 -0.020119505 -0.046086293 -0.023962244
0.037530124 -0.0067513604 0.014078048 -0.036575697 0.008382119 0.0019240546 0.025948435 0.00050554675
0.08213649 -0.00064207095 -0.0015697312 0.011543568 0.046777785 0.036210004 0.012073797 -0.04462038
0.046309616 0.0326997 -0.0012931214 0.06221337 -0.043402493 0.04443321 0.01321392 -0.02009943

weight f4 [41, 256]
00000000: 11b3 37be 731f 4cbe 8f57 52be d71c 34be
00000010: 180a 32bb bba1 8cbd 5bd7 2fbd e3e8 11be
00000020: 87c6 40be 735c 52bd f83e 003e 1d68 133b
00000030: faa3 9fbd 71dc 3abd f4fe b33c 5fe9 37bd
00000040: 3f38 24be 5599 95bc 4c2d 283b 73f3 803d
00000050: 33e6 08be c80d 73bd bd2d debd 9974 593d
00000060: 2034 e1bd be16 343d 5381 59bc 86fa eebd
00000070: d7f6 b63c 8378 babd 73df 81bc 9639 693d
00000080: 97a2 193d d6a9 bd3d 8f6e 5a3d b706 8cbd
00000090: 4297 9f3c 60af 123d 0237 913d 8e47 193c
000000a0: b1b4 78bd 9e18 1c3c 4227 fbbd 6b68 21bc
000000b0: 0316 5fbd aa78 23be f17c 65bc e507 7ebd
000000c0: 88d7 1dbe e2a3 56be ebcc c23c dcf1 b83d
000000d0: 9b3c 80bd 8855 233c 55b7 83bb 1e02 fabc
000000e0: 6228 cbbc f119 02bc b848 923d 90d4 fb3c
000000f0: 2026 49be 1b96 26bd f73a 96bc 95b1 923c
00000100: 3c12 b33c 326c d9bc 35e5 f6bc c416 80bd
00000110: 611f 963d d6b2 89bd 08d4 4a3c 4912 003c
00000120: 99be f43c 323e 94bd 5f04 c6bd fd1f 963c
00000130: 8b4a 2c3c 5803 ac3d 9229 34bd 7c18 963d
00000140: b934 1cbb 4e0b bc3d f37b 17be 74b2 4dbe
00000150: ba71 633d 82bc acba 8af6 603d 1e79 743d
00000160: abca 983d 42d3 e3bd 642f 583d de9a d53b
00000170: 4d18 25be 7d3b e7bc 20f8 e1bd 26f9 9fba
00000180: d3e9 d8bd 8df7 13be 5b1a 613d a4b2 9dbb
00000190: 3f59 3fbe 5b9f 11be 973b a6bc d620 18be
000001a0: 99d3 14be 82f6 8ebd e6b9 09bd d4dd 38bd
000001b0: 1c22 4b3c ba68 bbbd 4a1a e73c 4b7c 9aba
000001c0: 7ef4 3ebe 4b3f 483b b090 22be df75 14bd
000001d0: a430 0ebd 5bdb a93d 0b27 03be 2406 2d3d
000001e0: 265d c83d 4cc6 793d bf10 01be 8e74 e43c
000001f0: 2f30 203d 80b8 9bbd ad0d 1bbd 60d2 003d
00000200: 329a a0bd a7de c03c 28a7 df3b e1a3 9f3d
00000210: 4cdb 3e3d f6f9 443c 5ae0 843d 0471 d9bb
00000220: 28bd 5cbd edaa 2cbe f479 053d 1638 7b3c
00000230: 3004 be3d f892 93bc a610 a63d 9736 e1bc
00000240: 09ca 9cbd 7914 e0bd 801d bfbd c7f8 32be
00000250: 28f8 7b3d 4741 f9bd 40d7 05be 6230 b53c
00000260: 0d17 85bc 8b2f 2f3d 568c 9d3d 0fe1 fe3d
00000270: 1a50 47bd 3de6 873c 9a6f 9f3d 1516 a8bd
00000280: a743 d13c 3593 393d b206 d73d 8492 17bd
00000290: dab5 21be b8db 153d 9eb1 da3d 4a4d 18be
000002a0: 6164 b73d 25b5 563d bb34 0bbe c3ef 8cbd
000002b0: b0d4 f1bc 1a7d 263d 49ee 32be 345d 00bc
000002c0: d948 aa3d 0f65 71be 3254 933d 9b92 d13d
000002d0: 486d b7bd d162 8cbc 3a2c 3abe 228a 883d
000002e0: 7ad1 b7bc 6178 2fbb 0e70 2d3d e698 a638
000002f0: 1dd4 4cbd 27ef d33d 4038 14bd 16c0 a53d
00000300: 2f13 acbd ccb3 05bc 1df5 03ba 2781 573c
00000310: d7be 28be 446a 40be f992 84bd d315 7b3d
00000320: 39f2 ce3d 10f0 ffbd 3ad0 e83b 613e 313d
00000330: f767 f9bc cf3e b839 76b7 583c 2e36 86bd
00000340: 0a6f 673d 6f9b 8c3d 4b0f 2fbd 2c24 9ebd
00000350: 8b4f 87bc 3791 3d3c 3868 56bd 5998 f7bc
00000360: 8b53 acbc afbe 9bbd 7aa6 37be a0bb d5bd
00000370: 154f b63d 6f35 d4bc 14d6 993d 388b 223d
00000380: ce2b 253d d02f 923d 5b9b 333d 0635 dfbc
00000390: a8b6 97bd 9435 26be b3e4 ef3c 6937 47bd
000003a0: 5f08 743d 3a92 7ebc 24fd 22be 7f16 98bd
000003b0: 319d b8ba 63ed 013c 79f6 e83d 7b87 c4bd
000003c0: 3270 553d 1417 bc3c 9f58 36be cfa5 8ebc
000003d0: 78d9 033c 851c 29bd 6b01 fcbd 451e 3bbe
000003e0: 5ed5 9c3d 6c33 2f3c c485 723c e90b ab3d
000003f0: e061 c5bc 4dde b03d 6d45 10bd b4d7 c7bc
-0.17939402 -0.19933872 -0.20541213 -0.17589127 -0.002716666 -0.06866785 -0.04292999 -0.14248995
-0.18825732 -0.051357698 0.1252402 0.0022492476 -0.07794948 -0.045620386 0.021972157 -0.044900294
-0.16037081 -0.018261591 0.0025661765 0.06296434 -0.13369064 -0.059339315 -0.10848568 0.05308971
-0.1099627 0.043967 -0.013275462 -0.11668877 0.0223345 -0.09105017 -0.01585362 0.056939684
0.037508573 0.09260909 0.053328093 -0.06837218 0.019481305 0.035811782 0.0709057 0.009355439
-0.060719196 0.009527354 -0.12263347 -0.009851555 -0.05446435 -0.15963998 -0.014006839 -0.062019248
-0.1541425 -0.20960954 0.023779353 0.09030506 -0.062615596 0.009969123 -0.0040196576 -0.030518588
-0.02479953 -0.007940755 0.07142776 0.030741006 -0.1964345 -0.040670495 -0.018338664 0.017906943
0.02185928 -0.02654085 -0.030138591 -0.06254342 0.07330204 -0.067235634 0.012379654 0.0078168595
0.02987604 -0.07238425 -0.096688025 0.0183258 0.010515819 0.08399075 -0.043984957 0.07328889
-0.0023835136 0.09181844 -0.14793377 -0.20087606 0.05552838 -0.0013178738 0.054922618 0.05968582
0.07460531 -0.111242786 0.05277957 0.0065187057 -0.16122551 -0.028226608 -0.11033654 -0.0012204989
-0.105914734 -0.14449902 0.054956775 -0.0048125554 -0.18686388 -0.14220946 -0.020292087 -0.14856276
-0.14533843 -0.069806114 -0.033624552 -0.045133427 0.012398269 -0.091508344 0.028210778 -0.001178631
-0.18647954 0.0030555304 -0.15875506 -0.036245223 -0.034714356 0.08293792 -0.12807862 0.042242184
0.09783392 0.060980126 -0.12604044 0.027887609 0.03910845 -0.0760355 -0.03785484 0.03145063
-0.078419104 0.023543669 0.0068253465 0.07794929 0.046595857 0.012022486 0.06488104 -0.006635787
-0.05389133 -0.16862078 0.032587007 0.015333196 0.092781425 -0.018014416 0.08108644 -0.02749185
-0.07655723 -0.10941405 -0.093317986 -0.17477714 0.061515957 -0.12170654 -0.13070393 0.022117797
-0.016246343 0.04276995 0.076927826 0.1244527 -0.048660375 0.016589278 0.07784958 -0.08207337
0.025544954 0.045306403 0.10499324 -0.037004963 -0.15792027 0.036586493 0.10678409 -0.14873233
0.08954693 0.052418847 -0.13594334 -0.068816684 -0.029520363 0.04064665 -0.17473711 -0.007834721
0.08314676 -0.23573707 0.07193793 0.10233041 -0.089563906 -0.017136963 -0.18180934 0.06666972
-0.022438753 -0.0026774632 0.04234319 7.9439764e-05 -0.050006974 0.10348349 -0.036186457 0.08093278
-0.084020965 -0.008160543 -0.0005033778 0.013153351 -0.1647905 -0.18790537 -0.06473345 0.06130011
0.10104794 -0.1249696 0.0071049007 0.04327238 -0.030445082 0.0003514201 0.013227334 -0.06553303
0.05650238 0.06865584 -0.042739194 -0.07721743 -0.016517421 0.011570266 -0.052345484 -0.030224012
-0.02103593 -0.076047294 -0.179346 -0.10436177 0.089018025 -0.025904385 0.07511535 0.03968355
0.04032498 0.07138026 0.04384933 -0.027246963 -0.07407886 -0.16231376 0.029283857 -0.048636828
0.059578296 -0.015537793 -0.15916878 -0.07426166 -0.0014084933 0.007930133 0.11375136 -0.09596153
0.05210895 0.022960223 -0.17807244 -0.017413048 0.008047454 -0.041286964 -0.12304958 -0.18273266
0.07657884 0.010693412 0.0148024 0.08351881 -0.024094522 0.086361505 -0.03522246 -0.024394847

bias f4 [41]
00000000: 4e4e b83b 118b 9abc 709e 803d 1694 f1bc
00000010: 6e02 773d 6ef6 113d b4e9 5bbc e63b 7a3c
00000020: f809 0cbc 4bde 86bd 8903 863d 74b4 09bd
00000030: 27ae 62bd 62f8 a93c 910a 1a3d b935 163d
00000040: 310c ee3c cdc7 82bd 674f 803d 3015 aa3c
00000050: 666e 8cbd 3de8 143d c06a 14bc 0f12 f83c
00000060: 3088 a53c 14ed b0bc a32b 253b 079a dc3b
00000070: cc8d 88bd 0c02 c6bc 04f4 5fbd 7368 8dbd
00000080: 8854 37bd 0df6 173c 43a7 08bd 31b8 87bd
00000090: f0fb 223d a750 eb3c 57a2 9d3d a75b c73c
000000a0: 4815 bb3c
0.005624569 -0.01886514 0.062802196 -0.029489558 0.06030505 0.035635404 -0.013422418 0.01527307
-0.008547299 -0.06585368 0.06543643 -0.03361936 -0.055341866 0.020748321 0.037607733 0.036672328
0.029058548 -0.06385765 0.06265145 0.020762056 -0.06856994 0.036354292 -0.009058654 0.030282049
0.02020654 -0.021597423 0.0025203011 0.0067322287 -0.066676706 -0.024170898 -0.05467607 -0.06904688
-0.04475835 0.009274972 -0.03336264 -0.066269286 0.039791048 0.028724981 0.076969795 0.024335695
0.022837296
