cs145_s19.pt (torch, 555927 bytes, 6 tensors)

ll1.weight f4 [512, 131]
000000 e0 7a b7 3d 86 68 f0 3c e4 f0 91 bd e2 e5 69 3c
       0.089589834 0.029346716 -0.07126024 0.014276
000010 5d ae 11 bd 2f e6 c6 3b d0 5b 72 3c da c2 e8 3d
       -0.035566676 0.0060699205 0.014792398 0.1136529
000020 a5 b6 0b be 73 47 f2 3d 3d 5f 99 bd 99 0a 96 3c
       -0.13643892 0.11830034 -0.074888684 0.0183156
000030 29 2d 06 3e b3 16 a2 bd 90 81 a4 bd 77 dc 82 bc
       0.13103165 -0.07914486 -0.080325246 -0.015974266
000040 00 b1 3a 3e 85 5b 15 bd 31 ed fa bd 85 5b 42 3c
       0.18231583 -0.036464233 -0.12252272 0.01186264
000050 6d dd 8a 3c 3c cc 8b bd 19 bf d8 bd 0d 8e 83 ba
       0.016951287 -0.06826064 -0.10583324 -0.0010036841
000060 c5 75 88 3d 81 0b ba bc 2f 92 14 3d 03 1e 1c 3e
       0.06663088 -0.022710564 0.036272224 0.15245824
000070 02 00 40 bc f1 6e 01 3d c4 e0 30 bd 59 a7 b5 3c
       -0.011718752 0.031599943 -0.043183103 0.022174524
000080 bb 72 a6 bc 4f 72 02 be dd 17 1a bd cb 82 96 bd
       -0.02031838 -0.12738918 -0.037620414 -0.073491655
000090 cf ab 85 bd 61 be 96 bd fe c4 39 bd 1c e4 8a bd
       -0.065269105 -0.07360531 -0.045353882 -0.0678179
0000a0 b1 91 8a 3e bc 5b 18 bd e2 00 6f bd d1 d7 76 bd
       0.2706428 -0.03719686 -0.05835045 -0.060264412
0000b0 bf 31 19 3b 74 4e 5c bc 3c 81 18 bd ec 65 af bd
       0.0023375598 -0.013446439 -0.037232623 -0.08564362
0000c0 63 30 0c be 8f 97 09 3e fd 95 83 bd f5 60 0d 3e
       -0.13690333 0.13436721 -0.06425092 0.13806517
0000d0 2f 5b f7 3c d9 67 08 3e b5 76 e0 3d 4b e4 8a 3d
       0.030194847 0.13320865 0.109601416 0.06781825
0000e0 65 8a c9 3d 1e ef 55 bd d9 55 07 3e 6a 44 ce 3d
       0.0984085 -0.052229993 0.13216342 0.10071643
0000f0 65 12 bd bd 5f 5f 01 bc c2 c4 ce 3b c5 d1 a5 bc
       -0.09232024 -0.007896273 0.0063100765 -0.020241627
000100 ac b6 ba bd da 69 5f 3d e5 60 8f 3d ef 16 39 bd
       -0.09116873 0.054544307 0.07000903 -0.045187887
000110 c3 23 2b 3e 60 35 ea 3c 07 13 1b 3e d3 ad f1 bd
       0.16712861 0.028589904 0.15143977 -0.118007325
000120 ca d2 13 3e 26 f9 02 bd c4 6d d5 3d 5a 2c 12 be
       0.14435878 -0.031975888 0.10421327 -0.14274731
000130 fa 71 1b 3e f9 d1 0c bc f4 4b 26 bc 88 18 97 3c
       0.15180197 -0.008594983 -0.010149945 0.018444315
000140 90 e0 0c be 9f 0b 0d 3d 75 cd 43 bd eb e4 33 be
       -0.13757539 0.03443491 -0.04780336 -0.17567794
000150 05 37 0f 3d 2c 92 24 3e 01 d2 ce 3c 32 1c d1 bd
       0.03496458 0.16071385 0.025246622 -0.10210456
000160 40 03 c9 3c 0b f8 85 bd 7a 19 e9 bd f5 3d 8d 3d
       0.024537683 -0.06541451 -0.113818124 0.06896583
000170 89 04 75 3c 0f d3 88 3d dd 58 30 bd 3a 42 93 bc
       0.014954695 0.06680881 -0.043053497 -0.017975915
000180 33 74 06 3e f6 d5 ea bd 10 cc 07 3e e2 43 81 3c
       0.13130264 -0.11466591 0.13261437 0.01577944
000190 22 5f 83 bd 50 20 e1 bd 09 73 20 3e cd 70 7f bd
       -0.064146295 -0.10992491 0.15668882 -0.062363435
0001a0 5b bb ad bd a7 6c 72 bb 83 42 36 3d 18 77 da 3d
       -0.08483001 -0.0036991031 0.044497024 0.106672466
0001b0 21 98 a9 bd 6a 6f 0b be fa 41 ae bd 49 f7 5d 3c
       -0.082809694 -0.1361672 -0.08508678 0.013547727
0001c0 80 9b 9c bd 41 02 f1 bc 33 14 cc bd 2a 83 01 3e
       -0.07646847 -0.02942002 -0.0996479 0.12647691
0001d0 42 85 d1 bc a8 b9 32 3e c5 47 bf 3c 7a d7 27 bd
       -0.025576238 0.17453635 0.023349652 -0.04097698
0001e0 07 10 e2 bb 0e 74 ce 3d 84 b7 dc 3d 84 d8 b0 3d
       -0.0068988833 0.100807294 0.1077719 0.08635047
0001f0 05 d3 02 3e bc 43 2c 3e 40 b6 02 3e a7 7d 13 bd
       0.1277581 0.16822714 0.12764835 -0.036008503
000200 42 05 0c 3d bc 9f a0 3d 4f 77 2b 3b 96 6b 4a bd
       0.0341847 0.07842967 0.0026163643 -0.04941901
000210 f4 b3 e5 3c e5 28 f8 3d 2b b4 34 3d 94 d6 1d bd
       0.02803991 0.12117175 0.044117134 -0.038534716
000220 3f e1 ea 3d 3c 64 8a 3c 33 30 de 3d 83 22 82 3c
       0.114687435 0.016893499 0.10849037 0.015885597
000230 d0 9a 44 bd 5c 50 da bd 3b 58 15 bd 48 90 df 3d
       -0.047999203 -0.106598586 -0.036461096 0.10916191
000240 40 13 0f 3c 05 b8 84 bd b2 ae eb bd 00 9d 4d 3c
       0.008732617 -0.064804114 -0.1150793 0.012549639
000250 ea 88 d2 bb 3b d3 88 3d a0 88 1f 3e 11 b9 90 3d
       -0.006425013 0.06680914 0.15579462 0.070665486
000260 53 77 86 bd 1c cb d1 bd c8 9d ba bd 33 96 58 3d
       -0.06565728 -0.10243818 -0.09112126 0.052877616
000270 48 12 1a 3e 40 c4 85 3a 90 ce 1c 3d d8 e8 ad bd
       0.15046036 0.0010205582 0.03828293 -0.08491677
000280 25 9f 0d bd 25 65 b0 bc fc c5 e1 bc 1e 41 65 bd
       -0.0345756 -0.021532604 -0.027560227 -0.055970304
000290 18 02 d7 3c 88 05 06 3d 1a 37 1c 3d d8 3a 3e bd
       0.026246116 0.03272012 0.038138486 -0.046442837
0002a0 49 6d d5 bc d5 92 5a 3d 36 05 8e 3c f0 e9 d9 3d
       -0.026053088 0.053362686 0.01733647 0.10640323
0002b0 10 9e e4 bd d7 6b 77 bc 76 29 9f 3b 40 45 fc 3b
       -0.111629605 -0.015101395 0.0048572375 0.007698685
0002c0 d5 1e 9a 3d 54 1a b4 bc 34 2d cd bd 33 0f 20 bd
       0.07525412 -0.02198521 -0.100183874 -0.039076995
0002d0 46 27 04 bd 6c b9 3b 3e c6 ec a1 bd 01 70 25 3c
       -0.032264017 0.18332452 -0.07906489 0.010097505
0002e0 d4 f4 1c 3d e1 c7 af bd 17 4f 0d be f2 f9 23 3d
       0.038319424 -0.08583046 -0.13799702 0.04003329
0002f0 3e 3a 70 bd fd 5f eb bd 3c f3 28 3e 58 8c 27 3d
       -0.058649294 -0.11492918 0.16499037 0.040905327
000300 2a 1e e8 bc 54 10 f4 3b 7c c2 42 3d af ee 3f 3e
       -0.028334696 0.0074482355 0.047548756 0.18743394
000310 50 e3 a3 bd 5e cb 88 3c 4c a6 77 3c 63 a0 05 be
       -0.08002341 0.016698536 0.015115332 -0.13049464
000320 b0 85 bf bd 8a 6d b7 bd b3 3e 23 3c ff f7 13 be
       -0.09351671 -0.0895644 0.009963679 -0.14450072
000330 aa c2 f8 bd 02 1f 39 bd 0e 35 a5 bd 47 39 bf 3d
       -0.12146504 -0.045195587 -0.0806676 0.09337097
000340 db 3f 98 bd 99 bb 8f 3d e5 92 07 3c 80 8b 59 3b
       -0.074340545 0.07018203 0.0082747685 0.003319472
000350 85 03 6d bd f5 94 5b bd a2 4c 35 3e d2 2b e5 3d
       -0.057864685 -0.053608853 0.17705014 0.11189999
000360 e1 d0 0c 3e 71 39 95 bc 73 bf 00 bc 44 53 64 3d
       0.13751556 -0.018215867 -0.007858145 0.05574347
000370 41 66 0e be b8 1a a9 bd 09 ef 86 3b 55 bd 6b 3c
       -0.13906194 -0.08257049 0.0041178507 0.014388402
000380 08 1c 75 3d 9c ec 22 3d d8 5f 28 3c 97 74 2d 3e
       0.059841186 0.03977643 0.010276757 0.16939007
000390 c2 81 60 bd 41 4d 90 bd 18 f5 9f bd 34 a5 81 bc
       -0.054811247 -0.07045985 -0.0781042 -0.015825845
0003a0 3c 63 38 bd 06 39 90 bd 41 95 7e bd d2 32 d0 bd
       -0.045016512 -0.07042126 -0.06215406 -0.10165943
0003b0 29 2b 42 bd 01 30 4f bd ae 93 70 3c 98 86 ac bd
       -0.047404442 -0.05058289 0.014683647 -0.08424109
0003c0 2c 32 cf 3d 7d ff 60 bd 88 0e 32 3e fa 8a 8e bd
       0.101169914 -0.054931153 0.17388356 -0.069601014
0003d0 76 ce 22 bd 26 a4 08 be 5e df 66 3d 85 fa bd bd
       -0.039747678 -0.13343868 0.056365363 -0.092762984
0003e0 d8 08 af 3c 55 42 b1 bd 60 6a 60 3c 1e 53 ad 3d
       0.021366522 -0.0865523 0.013697237 0.08463119
0003f0 8f 9f 27 3d e4 aa c4 bd a2 a6 a1 bd 8e 7a 28 bd
       0.04092365 -0.09602907 -0.07893111 -0.041132502

ll1.bias f4 [512]
000000 ef 5f 59 3d b8 6e 15 bb 53 ca 35 3e fb f9 01 3e
       0.053070005 -0.002280159 0.17752962 0.12693016
000010 b8 fe a1 3d ae 29 f1 3d 86 f4 ea 3d 93 9b 1b 3e
       0.07909912 0.11775528 0.114724204 0.15196066
000020 39 8f 25 3e be 2d 70 3d 2e cd 31 3e 27 bd 30 3d
       0.16167916 0.058637373 0.17363426 0.04314914
000030 33 31 03 3e 64 7a 08 3e bb 33 2a 3e 1e 25 28 3e
       0.12811737 0.13327938 0.16621296 0.16420409
000040 b9 b0 c3 3d b5 51 02 3e 86 dd b6 3c d0 bf 82 3d
       0.095551915 0.12726481 0.022322427 0.063842416
000050 5e 49 1a 3d ef d3 cb 3b b8 8b 84 3c e9 68 b0 3d
       0.037667625 0.006220333 0.016179904 0.0861376
000060 f1 ad f6 3d 62 74 37 3e 6a 78 b2 3d c6 3c c0 3d
       0.120448954 0.1791549 0.087143734 0.093865916
000070 2e ed f5 3c 99 48 1a 3e ba 05 ff 3b 1c 4a 34 3e
       0.030020323 0.15066756 0.007782665 0.17606395
000080 e7 fa 89 3d f3 2e d8 3d 97 f1 28 3e cd c2 37 bd
       0.06737309 0.1055583 0.16498409 -0.04486351
000090 c0 6a 6f 3d 0d 9c c5 3d 39 4b 07 3e 9c cc 5f 3d
       0.058451414 0.09648905 0.13212289 0.05463849
0000a0 b0 4d 69 3d 77 21 72 3d 69 2f 00 3e a0 d2 ce 3c
       0.056958854 0.059113946 0.12518086 0.025246918
0000b0 ac 48 e0 3d 5b 4f 1c 3d e7 e8 1f 3e 0d b6 60 3d
       0.10951361 0.038161617 0.15616189 0.054861117
0000c0 50 78 6c 3d e1 93 85 3d 9b da f7 b9 c6 18 b3 3d
       0.057731926 0.06522346 -0.00047274385 0.087449595
0000d0 1a 3b 2e 3e 4d 8c b2 3d 44 bc 2a 3e 64 b7 04 3e
       0.17014733 0.087181665 0.1667338 0.12960583
0000e0 2b 18 26 3e aa 39 34 3e 1e 68 2c 3d 19 55 18 3e
       0.16220157 0.17600122 0.04209148 0.14876212
0000f0 94 33 20 3e 8d 9e 09 3e 6c 66 8a 3d 7f 9f 07 3e
       0.15644675 0.13439389 0.06757817 0.13244437
000100 6a 5c 94 3d 82 65 b4 3c ad d3 01 3d bd 36 fa 3d
       0.07244189 0.022021059 0.03169601 0.12217472
000110 da 5f 91 3d ab bf 0f 3e 18 f5 b7 3d 3c a0 5b 3d
       0.0709836 0.1403796 0.08982295 0.05361961
000120 c9 1d b7 3d 57 88 18 3e 16 6e f6 3d 81 7b 0d 3e
       0.08941228 0.1489576 0.12032716 0.13816644
000130 2f f6 22 3e 79 5f 5b 3d 11 d8 e6 3d 2e 81 ad 3d
       0.15914224 0.053557847 0.1127168 0.08471905
000140 26 71 b4 3d d6 1d e0 3d 0e 10 37 3c d5 6f 05 3e
       0.08810644 0.10943191 0.011173261 0.13030942
000150 2f a9 28 3e f4 05 12 3e 96 54 11 3e 49 0f e9 3d
       0.16470788 0.14260083 0.14192423 0.113798685
000160 f7 12 48 3d 62 d2 c8 3d 57 4d 2a 3e e6 a5 82 3d
       0.04884621 0.09805752 0.16631065 0.06379299
000170 b4 ac e7 3d 29 72 13 3e e6 8c 05 3e 9c 82 e2 3d
       0.113122374 0.14399017 0.1304203 0.11060068
000180 47 23 8e 3d d0 8f 72 3d 28 dc 25 3e a5 c6 0c 3c
       0.06940322 0.05921918 0.16197264 0.008592282
000190 f1 22 a0 3d cd e7 28 3e a7 09 ff 3d e9 de ec 3d
       0.078191645 0.16494675 0.12453013 0.11565954
0001a0 3b dd 86 3c c4 0a d3 3d 1d a8 f5 3d f0 9d 81 3d
       0.016462913 0.10304788 0.11994956 0.06328952
0001b0 28 f8 14 3e e8 4c 99 3c 1e c0 b8 3d 43 ac d1 3d
       0.14547789 0.01871343 0.090210184 0.102379344
0001c0 b0 83 e2 3d 32 8f a3 3d e1 48 4f 3e 60 f8 fc 3d
       0.11060274 0.07986297 0.20242645 0.12352061
0001d0 dd 8b b5 bc 23 98 af 3c 29 d5 7f bb 54 c5 f1 3d
       -0.022161419 0.02143485 -0.0039036965 0.118052155
0001e0 b9 19 14 3e 27 ab b7 3d 42 1a 23 3e a2 e2 98 3d
       0.14462937 0.089681916 0.15927985 0.07465102
0001f0 6c d7 9b 3d fe 4e 82 3d cf 7c 04 3e 9e 53 06 3e
       0.07609448 0.06362723 0.12938236 0.13117835
000200 50 4a c4 3d 7b fa 1e 3e 3d e5 46 3d e9 66 e0 3c
       0.095844865 0.15525238 0.048558462 0.027392821
000210 02 f4 32 3e 19 24 d7 3d bc a1 9c 3d e3 5b ce 3d
       0.17475894 0.10504932 0.07648036 0.1007612
000220 24 0b 10 3e 8d 3c 01 3e ce 6f 34 3e 0c dc a5 3d
       0.1406675 0.12620755 0.17620775 0.08098611
000230 38 56 b2 3d e3 b1 04 3e a3 14 1c 3e 5f 17 ee 3d
       0.08707851 0.12958483 0.15242247 0.116255514
000240 fb 26 f7 3d 56 cf cf 3d cc 20 c7 3d 68 6b bc 3d
       0.12067982 0.10146968 0.097230524 0.092001736
000250 3b e3 60 3d 47 43 0e 3e f6 13 07 3d 1f cd 2e 3d
       0.054904204 0.13892852 0.03297802 0.042676087
000260 4d 3e f4 3c b2 ee b3 3d ab 7a a6 3d 60 64 24 3e
       0.029814864 0.08785762 0.08128866 0.16053915
000270 41 59 9d 3c ca d3 3b 3e 03 23 f0 3d 86 88 ce 3d
       0.019207599 0.1834251 0.11725428 0.100846335
000280 e2 cb 5b 3d e5 e2 f6 3d f4 3a 83 3d e2 96 37 3d
       0.053661235 0.120549954 0.06407729 0.044821627
000290 a3 a2 8f 3d 43 a7 d8 3d 37 fd 22 3e 6e b8 91 3c
       0.07013442 0.10578778 0.15916906 0.017788138
0002a0 65 f4 d6 3d da c2 c6 3d 3f 49 1c 3e fd 81 d9 3d
       0.10495833 0.09705134 0.15262316 0.106204964
0002b0 61 de c3 3d 6e eb 11 3e 3a 4a 0c 3d a8 57 d2 3d
       0.095639 0.14249966 0.034250475 0.10270625
0002c0 28 81 b5 3d 63 3c 23 3e 95 26 19 3d 2a 98 26 3e
       0.08862525 0.15941004 0.03739031 0.16268983
0002d0 77 39 21 3e c6 75 d7 3c 35 3e 77 3d b5 16 18 3e
       0.15744577 0.026301276 0.06036206 0.14852412
0002e0 46 20 21 3d bb 07 2d 3d 13 0e 4e 3d 12 6e 51 bc
       0.03933742 0.0422437 0.05030639 -0.01278259
0002f0 21 42 ca 3d 6f a7 c5 3d 23 b4 ae 3d 99 d9 f2 3d
       0.09875894 0.09651076 0.08530452 0.1185791
000300 a8 db 24 3d 9b 6b e8 3d 24 fb 22 3c 95 cc fc 3d
       0.040248543 0.11348649 0.009947572 0.123437084
000310 6a 74 25 3d 50 ef 26 3d 0c 27 41 3d 9d 63 99 3c
       0.040394224 0.04075557 0.04715638 0.018724257
000320 15 c6 c0 3d 54 70 35 3e 73 4a ce 3d 70 d7 51 3e
       0.09412781 0.17718631 0.10072794 0.20492339
000330 45 2d 24 3e 5e 51 e8 3d fc ef c3 bc 3c 1a 91 3d
       0.16032894 0.113436446 -0.023918144 0.07085082
000340 7f f9 d6 3d c5 90 b0 3d 44 28 06 3e fc 81 1c 3e
       0.10496806 0.086213626 0.13101298 0.1528396
000350 fe 20 ba 3d 5a bd 88 3d 88 df 19 3e c5 e7 2d 3e
       0.09088324 0.06676741 0.15026677 0.16982944
000360 8d 9c 2d 3d 1a 09 09 3e a1 3d 32 3d 1d 2d 1b 3e
       0.042385627 0.13382378 0.043515805 0.15153928
000370 91 02 2c 3e 8c 9a 05 3c b6 21 8d 3d b4 1b 9d 3d
       0.16797854 0.008154523 0.068911955 0.076712996
000380 8e 91 52 3c 3d 95 ae 3d 66 58 23 3e 64 9f f9 3d
       0.012852086 0.08524559 0.1595169 0.121886045
000390 9b c1 db 3d 0e 27 dd 3d 8f b4 12 3e 5c f0 bb 3d
       0.10730287 0.10798465 0.1432669 0.09176704
0003a0 d9 1d 2b 3c 1d 31 a8 3d f7 f1 f1 3d 5b b5 f6 3d
       0.010444128 0.082124926 0.11813729 0.120463096
0003b0 5e 67 ff 3b 3a a2 d3 3c 76 ef 1d 3e cb af dc 3d
       0.0077943048 0.025834192 0.15423378 0.10775717
0003c0 3c 59 27 3e 23 d8 86 3d aa 77 12 3e 06 bd 13 3e
       0.16342634 0.065841936 0.1430346 0.14427575
0003d0 cd 28 a8 3d a5 79 1a 3e 7d df b7 3d a6 df 0d 3e
       0.08210907 0.15085466 0.08978174 0.13854846
0003e0 7e ed 83 3c e7 cc 00 3e 09 63 45 3e 94 66 3a 3e
       0.016104456 0.12578164 0.1927606 0.18203193
0003f0 e9 b3 02 bd e8 b7 51 3d 1e b7 b8 3d 12 cd 12 3d
       -0.031909857 0.051200777 0.09019302 0.0358401

ll2.weight f4 [128, 512]
000000 da 73 a3 3c 2e fb 91 3c 1b bc 62 bd b8 dd f0 b9
       0.019952703 0.017819967 -0.055355173 -0.0004594156
000010 e3 2d 30 3d 25 78 e1 bb 86 5b 7d bd a1 5c ba 3c
       0.04301251 -0.0068807774 -0.06185486 0.022749247
000020 47 07 26 bc c3 73 20 bd 56 c5 3e 3c 01 95 53 3c
       -0.010133571 -0.0391729 0.011643728 0.012913943
000030 39 22 1f bd 45 b3 c6 3c 2b 77 ad 3c 6d 04 62 bd
       -0.038850997 0.024255404 0.021174988 -0.055180002
000040 0f b8 07 bd a3 fa 3e 3c 05 45 18 bc 01 7e 28 3c
       -0.033134516 0.011656436 -0.009293799 0.010283948
000050 3d 84 0b 3d 0d da 91 bc b8 3b ff bb 8b fd cf 3c
       0.03406166 -0.01780417 -0.0077891015 0.025389453
000060 ab d3 b1 bc 39 6d 06 bc ec 01 cd 3c 1e a8 75 3b
       -0.021707376 -0.008204752 0.02502533 0.003748424
000070 d5 79 a8 bc 01 52 52 bc e5 1e f9 3b 69 79 1e bc
       -0.020565907 -0.012836934 0.00760256 -0.009672501
000080 f9 3d 6c 3d 64 13 b9 3b d4 3c c9 3c 63 44 cf bc
       0.05767629 0.0056480635 0.024565138 -0.025301164
000090 74 2f ab 3c 07 79 70 bd 71 66 76 bc 4c ea 3d bd
       0.02089665 -0.05870917 -0.015039072 -0.04636602
0000a0 44 86 68 bd bd 85 8b 3b 9d ff a2 3c d8 39 d5 bb
       -0.05676867 0.004257886 0.019897277 -0.0065071397
0000b0 8d 97 6e 3b e7 e5 44 3c da c6 75 bd 70 8c 5c 3d
       0.003640625 0.012017704 -0.060004093 0.05384487
0000c0 11 26 63 3c 37 5c d5 3c 7c 97 99 3c df dc 30 bd
       0.013864056 0.026044948 0.018748991 -0.04317939
0000d0 fb 59 0c bd e7 8e 05 bd fc 36 c1 bc 8e 7d 26 bd
       -0.0342655 -0.032606985 -0.023585789 -0.040647082
0000e0 c0 cd 22 bd aa e6 c9 3c f1 12 23 3d ed 25 61 bd
       -0.039747 0.024646122 0.039812986 -0.05496781
0000f0 a8 90 1c bd f7 4f c1 3b 9e 42 1b 3c 14 e5 32 bd
       -0.038223892 0.005899425 0.009476332 -0.043675497
000100 c0 1c 16 bc 02 2f 03 3d 01 4e 56 bd 38 61 62 3a
       -0.009162128 0.032027252 -0.052320484 0.00086357025
000110 1c 60 48 bc 22 36 45 bd 9b b1 63 bd 59 5b 13 3d
       -0.0122299455 -0.04814733 -0.0555893 0.035975788
000120 d9 82 05 bd 1b 59 46 bc 2e ec b8 3c d1 9c 05 3d
       -0.03259549 -0.012106205 0.022573557 0.032620255
000130 0c 72 ca 3c 70 2d 29 3d 5e f0 48 bd fd 07 73 bd
       0.024712585 0.0413031 -0.049057357 -0.05933379
000140 9c 0a cd 3c 56 96 e9 bc 64 6f 14 bd b5 48 4b 3d
       0.025029473 -0.028514069 -0.036239043 0.049629886
000150 38 dc 07 bd ef 01 b0 3c 31 ad 03 3c d4 3e d6 bc
       -0.033169 0.021485297 0.0080368975 -0.026153006
000160 f7 84 00 3c 6c ac 2f 3c f9 a0 ec bc 8c d4 11 bd
       0.007844201 0.010722261 -0.028885351 -0.03560309
000170 57 4c 1b bd db bb 12 3b 0e a7 56 bd 5d be bf 3c
       -0.0379146 0.0022389803 -0.05240541 0.023406202
000180 53 60 55 bd 45 69 c5 3c b5 82 8c bc 06 b1 a2 3c
       -0.052093815 0.024098048 -0.01715217 0.019859802
000190 6a c1 4f 3c 88 f1 b4 bc 33 33 1f 3d 3b b3 4d bd
       0.012680391 -0.022087827 0.038867187 -0.050219756
0001a0 48 0c 46 bd 4c cf 03 bc 11 e6 6b bd b3 24 da bb
       -0.048351556 -0.008045029 -0.057592455 -0.006657207
0001b0 19 87 09 bd 62 ee 12 3b eb cf f8 bc 26 45 a5 3c
       -0.033576105 0.002241992 -0.03037258 0.020174574
0001c0 c6 3e 7e 3c 2d 30 80 3c a9 e4 25 3c 9a f2 81 bc
       0.015517896 0.015647972 0.010125318 -0.015862752
0001d0 a4 64 28 bd 77 34 3a 3d da dc b4 ba 48 0c 12 bc
       -0.041111603 0.04546019 -0.0013798729 -0.008914061
0001e0 bf f8 09 bd f1 f7 8f 3c 95 1e c1 3c 42 54 42 3c
       -0.03368449 0.017574282 0.023574153 0.011860909
0001f0 2b f7 72 3d c5 c0 89 bc cb 98 f1 3b 82 4c c7 3b
       0.05931775 -0.016815552 0.0073729507 0.0060821185
000200 80 97 b1 3b 7d 06 4b 3d 9f cd a4 3c 1c 68 84 3c
       0.0054196715 0.049566735 0.020117579 0.016162924
000210 ec 78 b5 3c be 76 cb 3b 42 c3 d3 bc 26 02 ba bc
       0.022152387 0.0062092235 -0.025849942 -0.022706103
000220 fe 9c 74 bd 67 e0 94 ba c8 61 10 bd ee a4 9a 3c
       -0.059720032 -0.0011358381 -0.0352495 0.018877473
000230 9c 4b d7 bc b2 2c 74 bc 25 47 83 bc 01 bf 4f 3c
       -0.02628117 -0.014903234 -0.016025135 0.012679816
000240 b1 0f bd 3c e6 f9 1d bd da c6 2b 3c cc 72 2e bd
       0.023078771 -0.0385684 0.010484422 -0.042589948
000250 b0 71 2e bd 5a 81 29 bc e0 b5 70 bd 0f 09 7d 3d
       -0.04258889 -0.010345781 -0.0587672 0.061776217
000260 b3 3e 09 3d fd 24 0a bc 13 e3 32 bd 0c 7e bb bc
       0.03350706 -0.00843167 -0.043673586 -0.022887252
000270 cc 3d 54 bd 42 7a 44 3c 94 b5 e3 bc 9c 70 3a bc
       -0.051816747 0.011992039 -0.027796544 -0.011379387
000280 e1 99 86 3c 02 c5 03 bd 2a d7 d3 3c 0a 44 9c bb
       0.016430797 -0.032170303 0.025859434 -0.004768853
000290 67 0c 96 bc 5b 6e 0b bd d2 ac aa bc 9e ae 62 3c
       -0.01831646 -0.03404079 -0.02083436 0.013835577
0002a0 ea cc b2 3c 5f 8c 5e bd 87 6d f6 bb 51 ed 18 bb
       0.021826226 -0.054333087 -0.007520381 -0.002333481
0002b0 f7 60 b8 3c 70 83 43 bd ad 8e c9 bc fd 6a 3e bd
       0.022507174 -0.04773277 -0.024604166 -0.04648875
0002c0 d7 86 8c 3c dd 70 8c 3c ea 16 a8 3c 7a f1 70 bc
       0.01715414 0.017143661 0.020518739 -0.01470601
0002d0 27 66 00 bd a7 57 e5 bc 10 51 5d 3d ae 21 1e bc
       -0.03134742 -0.027995897 0.054032385 -0.009651585
0002e0 64 46 3f bc 8e d3 27 bc 0f fa e7 bc 0e a6 26 bd
       -0.011674497 -0.01024331 -0.02831748 -0.040685706
0002f0 4f 3d 33 3d b2 b7 3a bd 9f f5 78 3d 2e af 03 bd
       0.04375964 -0.04558534 0.060781118 -0.032149486
000300 66 d6 3a bd d0 e5 84 bc 93 5c f5 bc 3f 25 48 3b
       -0.045614623 -0.016222864 -0.02995137 0.0030539779
000310 1f 3d f4 3c 66 6a 9e 3c a3 5b 78 3d 14 59 e5 bc
       0.029814301 0.019337844 0.060634267 -0.027996577
000320 cf 26 41 bd 89 94 33 bd 55 e7 91 3c d3 74 c5 3b
       -0.04715615 -0.043842826 0.017810503 0.0060258894
000330 cf 93 17 bd 6a 0b 17 3c 98 cc 82 3a 66 ac b8 3c
       -0.037006196 0.00921903 0.0009979187 0.022543143
000340 40 3e c8 3c 2a 9b d4 bb 6f 55 8d 3b fe 09 a2 3c
       0.024443746 -0.0064882236 0.004313163 0.019780155
000350 2f 7a ca bc 61 de 7c bc c8 0f a1 3c 54 76 8d bc
       -0.024716465 -0.015433879 0.019660845 -0.017268337
000360 6d 27 4c bd 97 37 68 bc 91 bd b9 bc 81 31 8b 3a
       -0.049842287 -0.01417341 -0.0226734 0.0010619612
000370 51 93 48 bd bd 32 e4 bc 50 9a 69 bd 3b 43 5a 3c
       -0.048968617 -0.027856225 -0.05703193 0.013321693
000380 6c 44 9a 3c 0d 9f 6e bd da 0e 79 bd e9 80 4f bc
       0.018831454 -0.05825715 -0.06080518 -0.012665012
000390 77 08 eb bc 54 fe 1c 3c 46 90 84 3b 3f 92 12 3b
       -0.02869056 0.009582121 0.004045519 0.0022365001
0003a0 d4 ec 12 3c 91 64 44 3d 19 e4 4e bd 01 30 5e bd
       0.008967597 0.04794747 -0.0505105 -0.054245
0003b0 a8 70 33 bd c4 13 05 bc bc a7 81 bb 17 66 7d bc
       -0.04380861 -0.008122388 -0.003956763 -0.015466235
0003c0 55 f1 c0 bc 78 d9 54 bc bd 53 1a bd 3d a5 03 bc
       -0.023552576 -0.012991302 -0.037677515 -0.008035001
0003d0 1e e3 6c bd 58 76 aa 3c 2b 5b 8a bc c4 23 99 bc
       -0.057833783 0.020808384 -0.016889175 -0.018693812
0003e0 0a 81 2d 3c 79 75 6c 3c c2 7e 4b bd aa 82 6e bd
       0.010589847 0.014432305 -0.049681433 -0.05823008
0003f0 91 83 9e bc f2 6c 6d bd 6c b2 eb bc 2c 21 ff bb
       -0.019349845 -0.057965226 -0.028771602 -0.007785937

ll2.bias f4 [128]
000000 b7 03 38 3b ff 5b 97 b7 62 01 0c bd 06 ad 05 3c
       0.0028078386 -1.8043442e-05 -0.034181006 0.008158928
000010 6c c3 5f 3d c9 e7 d9 3c ce 28 2a 3c f0 97 60 3d
       0.05462973 0.026599782 0.010385705 0.0548324
000020 a2 ab c7 3d ae c2 51 3d 0f 4a 03 bd 1b fe b3 3c
       0.09749533 0.05121105 -0.03205305 0.021971753
000030 d6 e6 75 bd 80 1d e3 3d f8 4f d1 bb 06 a4 86 3c
       -0.060034595 0.11089611 -0.006387707 0.016435634
000040 0a f4 d3 bb 7f 6e 09 bd df 06 8d 3c 37 25 f6 3c
       -0.0064683007 -0.033552643 0.01721519 0.030047042
000050 51 f0 5b bd 28 19 88 3d 3b 0d cf 3d ac 4e 35 3d
       -0.05369598 0.06645423 0.101099454 0.04426448
000060 24 bb 11 3c d0 2d 53 bd bd 1f 44 3d 4f 96 50 3d
       0.008894715 -0.051557362 0.04788183 0.050924595
000070 40 c1 a3 3d 4e 3d 98 3d 54 e8 1b 3c 89 11 e6 b8
       0.07995844 0.07433568 0.009515841 -0.00010970521
000080 5b 19 77 3d 5b b6 f7 3c 8b 31 ee 3c 20 e2 4a 3d
       0.060326915 0.030238321 0.029076358 0.049532056
000090 3b 07 de 3c cb a9 f7 3c 00 e2 9c 3d 5a f4 3c 3d
       0.027103057 0.03023233 0.076602936 0.04613147
0000a0 34 b0 18 3c 50 67 81 3d 9d 97 2c 3d bd 12 11 3d
       0.009319354 0.063185334 0.042136777 0.03541826
0000b0 65 d1 90 3d 66 49 9a bc 4c 6b 5d bc 1a 9c 93 3d
       0.07071189 -0.018833827 -0.013514351 0.072075084
0000c0 cc d2 7f 3d aa 4d 82 3d 3e 63 6f 3d 11 7d e3 3c
       0.06245689 0.063624695 0.058444254 0.027769597
0000d0 e4 14 fe 3c 97 29 7b 3d 6b c3 03 3d 09 2e 4a 3d
       0.03101582 0.06131896 0.032168787 0.04936031
0000e0 34 ab df 3c d1 a0 de 3d 04 37 78 3d 91 fe 19 3d
       0.027303316 0.10870517 0.060599342 0.03759629
0000f0 69 e5 eb 3c 12 ae ee 3c 4b 0c 02 3d 32 aa 84 3d
       0.028795915 0.029135738 0.031750005 0.06477775
000100 8e 97 2c bd 74 b6 71 3d 4b 19 a1 3d 60 3f 97 bb
       -0.04213672 0.05901189 0.078661524 -0.004615709
000110 06 62 17 3d 75 d3 88 3b 9b 1c 26 3d ba 9b 45 bc
       0.036958717 0.0041755983 0.040554624 -0.012061054
000120 0e e8 d0 3c fe 45 63 3d 73 5a 8f 3d 00 42 49 3d
       0.025501277 0.05548667 0.06999674 0.049135208
000130 89 3e fa 3c bf ff 2b bd 1e 6c 6c 3d c2 f3 ce 3c
       0.030547397 -0.041991945 0.057720296 0.025262717
000140 7f cb b6 3d e7 4a 5a 3d 1a ab 62 bb 67 8f 23 3a
       0.089255325 0.05329409 -0.0034586848 0.0006239325
000150 75 a1 2d 3d ac 07 53 bc 0d 9a cc bb 59 da bb 3c
       0.042390306 -0.012880247 -0.00624395 0.022931265
000160 32 f8 fb 3c d5 bd 7c bc ac 97 ca bc 07 f5 61 bd
       0.030757997 -0.015426119 -0.024730526 -0.055165317
000170 78 2c 6b bc 18 a7 d1 bc 82 2c 4d 3d 99 0d e4 3c
       -0.014353864 -0.025592372 0.050091274 0.027838515
000180 99 b9 9e bc b7 a6 32 3d af c2 eb bc c5 4e ed 3c
       -0.01937561 0.043616023 -0.028779356 0.028968224
000190 a5 59 06 bd 77 e9 84 3d f0 34 a0 3d 6a ec 98 3d
       -0.032800335 0.064898424 0.07822597 0.074669674
0001a0 89 79 bb 3a 31 79 99 3d e3 90 8d 3d b8 fb 79 3d
       0.0014303188 0.074938186 0.069124006 0.061031073
0001b0 72 bb d3 3b 3d a1 0f bd fc c6 fc 3c 5f 4b 15 bc
       0.006461554 -0.03506588 0.030856602 -0.009112208
0001c0 c9 6f 98 3d 58 99 55 bc 5c af 01 bd ab c2 1d 3c
       0.07443196 -0.013037048 -0.031661376 0.009628932
0001d0 87 ba 7a 3c cb 6f 74 bb 3b 80 90 3d 32 ad f7 3b
       0.015303261 -0.003729808 0.07055708 0.0075584883
0001e0 e3 6e 48 3c a0 54 45 3c 1b 71 74 bc 6d 03 94 bc
       0.012233469 0.012044102 -0.014919545 -0.01806804
0001f0 58 61 28 3d 13 ab 24 3d d8 33 c1 bc 91 7f 58 bc
       0.04110846 0.04020221 -0.023584291 -0.013214008

ll5.weight f4 [41, 128]
000000 e6 16 56 bd ee dc c1 bd 89 45 b8 bd ac 9c 8e bd
       -0.05226793 -0.09465967 -0.08997638 -0.069634765
000010 49 c3 07 3d 61 8b 15 be 80 d7 bb bd 86 3d a2 3d
       0.033145223 -0.1460395 -0.09171963 0.07921891
000020 89 4e aa bd b4 5c 5e be e0 e7 c9 bd 02 9a 8a bd
       -0.08315761 -0.21715051 -0.0985868 -0.06767656
000030 36 7f 68 3b 0d 04 ab bb 4c 32 ab 3d a7 b5 a7 bd
       0.0035476214 -0.0052189888 0.08359203 -0.08188944
000040 c2 31 66 3d ae dd 47 bd 45 59 25 be 65 1c b0 3d
       0.056199796 -0.048795395 -0.16147335 0.08599166
000050 21 b8 0a bd 40 82 ca 3d 30 91 b7 3d c1 3a d6 bb
       -0.033867005 0.098881245 0.08963239 -0.0065377657
000060 1d ac 11 bd 44 64 1d bb 5b be 2e 3d 3f ca b1 3d
       -0.03556453 -0.0024016062 0.042662006 0.086811535
000070 c4 c9 53 be 2e bd 3b be ba 0d 22 bd 1e 37 ab 3d
       -0.20682436 -0.18333885 -0.039563872 0.08360122
000080 c6 c9 30 be bf f3 0d 3e 2a a3 54 be df 0a 0d 3e
       -0.1726447 0.13862513 -0.20765367 0.13773678
000090 77 16 dd 3d 45 8d 6d 3c c5 2d 36 bd 3b 2f e4 bd
       0.107953005 0.014499013 -0.044477243 -0.11141821
0000a0 17 ec f1 3d a6 12 0e be 4e c8 b5 3d 3d 6b 38 be
       0.11812609 -0.13874301 0.08876096 -0.18009658
0000b0 c2 0e e3 bd 9a b0 9b bd 60 dd 79 bd 81 d5 9f 3d
       -0.11086799 -0.076020434 -0.061002135 0.078043945
0000c0 7e 32 d6 bd 55 7b 48 bd 6e c1 da 3d 54 92 9f 3d
       -0.10458849 -0.048945744 0.10681425 0.07791582
0000d0 2d 14 bc bd e8 84 54 be fc 76 60 bd 31 f5 0b be
       -0.09183536 -0.20753825 -0.054800972 -0.13667752
0000e0 0a a5 e1 3d e2 89 94 3d 21 c6 20 be 33 f8 51 be
       0.11017807 0.072528616 -0.1570058 -0.20504837
0000f0 f9 c1 e3 bd ac 83 43 bd 97 9c 13 3e 53 99 36 3d
       -0.11120982 -0.047732994 0.14415203 0.044579815
000100 2a 7f b0 bd 85 a2 42 be 82 85 df 3d a8 e9 37 be
       -0.086180046 -0.19007309 0.109141365 -0.17960227
000110 11 96 31 3d 3f b5 b8 3d ab 46 99 3d 97 bf d7 bd
       0.043356005 0.09018945 0.07484182 -0.1053459
000120 58 50 4d 3d e6 80 ae bd e5 84 20 3e 49 68 35 be
       0.05012545 -0.08520679 0.15675695 -0.17715563
000130 f8 e4 18 bc 2c 75 4e 3d 00 44 04 be 2b 27 21 be
       -0.009331934 0.050404713 -0.12916565 -0.15737598
000140 8e f3 b3 bd 54 53 fc 3d a4 c6 fd bd 09 b5 87 bd
       -0.08786689 0.12320581 -0.12391403 -0.066263266
000150 b1 aa 64 bd 14 6e 91 bd e4 99 32 be 04 5b d4 3d
       -0.055826847 -0.07101074 -0.17441517 0.10368922
000160 c2 86 17 3e 4c 20 09 3d 47 8e 41 be ef 86 99 bd
       0.147975 0.033478066 -0.18901931 -0.0749644
000170 dc 4a c3 bc 23 92 46 bd 19 8e ec 3d 78 c2 2b be
       -0.023839407 -0.04847921 0.115505405 -0.16773403
000180 61 10 e9 bd 4b a9 61 3d 01 ef 24 be 86 5b ae bc
       -0.11380077 0.05509309 -0.16106798 -0.021283876
000190 66 ef cf 3d d5 dd 42 3d 42 68 21 be 84 00 4d be
       0.101530835 0.047574837 -0.15762427 -0.20019728
0001a0 7b 11 12 be 7b 2c eb bd 3b 99 2e be 88 ce f0 3d
       -0.14264481 -0.11483093 -0.1705064 0.11758143
0001b0 3c 77 14 3e 22 49 3d 3c 64 4a cc 3d 45 84 bc 3b
       0.1449861 0.011553081 0.099751264 0.0057530724
0001c0 75 9e e1 bd 7c af 31 bd 82 46 1b be 65 b0 2a 3d
       -0.110165514 -0.043380246 -0.15163615 0.04167213
0001d0 cc 7e a7 3d 83 a9 48 be e8 69 82 bd 8d 55 81 3c
       0.081784815 -0.19595914 -0.06367856 0.015787864
0001e0 5a 56 7b bd b2 27 2e be 48 61 14 3d 84 12 72 bd
       -0.06136165 -0.1700733 0.036225587 -0.05909969
0001f0 d1 72 0f be ae 4e 22 be 32 23 57 be e8 d5 8a 3c
       -0.14008643 -0.15850326 -0.2100952 0.016947702
000200 94 a1 57 3d f1 ca 09 be 1b fe 8e bd 93 47 e0 3b
       0.052644327 -0.13456322 -0.069820605 0.00684447
000210 88 8b 43 be 16 42 76 3d 18 af 6b 3c 2d 5b 3d bd
       -0.19096196 0.06012162 0.014385007 -0.04622953
000220 c7 8d 00 3e b4 7a 28 be 2a 2b 97 3d bf 5b 79 3d
       0.12554084 -0.16453058 0.0738128 0.06087851
000230 9e cc 5e 3d 1c 4e c4 bc 9e 5e 4c be ba 7f 00 3e
       0.054394357 -0.023963027 -0.19957969 0.12548724
000240 4b 96 d8 bd 5d 55 7d 3d 9f 5f 13 3e 81 27 da 3d
       -0.10575541 0.061848987 0.14391945 0.10652066
000250 2d 1b 66 bd be 8c 3e be 92 5f 82 bd 41 4b 4d be
       -0.05617826 -0.18608376 -0.06365885 -0.20048238
000260 15 24 ad 3d 75 28 6f 3d cf 2a 36 be dc d2 0a bd
       0.08454148 0.058388192 -0.17789768 -0.033892497
000270 df 95 1b 3e c1 30 fe bd a1 73 21 be 8f 60 f9 3d
       0.1519389 -0.12411643 -0.15766765 0.1217662
000280 67 b0 14 3e 58 c9 99 3d 54 04 c3 3d 8e 98 62 3d
       0.14520417 0.075091064 0.0952231 0.05532127
000290 ef 63 45 be 5a b2 7a 3c 7b 2b 35 be cf 87 ab bb
       -0.19276403 0.015301311 -0.17692368 -0.0052346955
0002a0 55 24 ab 3d 2b 65 81 3b df 50 e0 3c fa af 26 bd
       0.08356539 0.0039488277 0.027382312 -0.040695168
0002b0 b4 e2 4d be de c7 32 be ad e5 df bd d1 a8 4e bd
       -0.20106012 -0.17459056 -0.10932479 -0.050453965
0002c0 44 40 6c 3d 9c 12 5a bd 83 1f 5c be 6a b2 fc 3d
       0.057678476 -0.053240404 -0.21496396 0.12338717
0002d0 2f 15 d7 3d c7 af 01 3e d6 d2 c2 3c 85 04 49 3d
       0.10502087 0.1266471 0.023782175 0.049076576
0002e0 ae 10 da bd 99 40 4d be 14 72 a0 3d 12 a5 52 3d
       -0.10647713 -0.20044173 0.07834259 0.051426955
0002f0 d2 a7 ee 3d ea 2f 12 3c 49 05 94 3b 0e eb e7 bd
       0.11653103 0.008922556 0.0045172316 -0.1132413
000300 63 06 b9 bd f2 43 ac bd 3c 54 f6 3d f8 30 50 be
       -0.09034421 -0.08411397 0.12027785 -0.2033118
000310 d9 5a da 3d 1c b1 b9 3d 34 e0 1d be 1e 17 cb bd
       0.10661859 0.09066984 -0.15417558 -0.09916519
000320 49 00 c5 3c d5 ac 34 3d 80 55 da 3c 51 36 c3 3c
       0.024047988 0.044110138 0.026652098 0.023829611
000330 13 54 00 3e b3 ed 5e 3d 5c 6e d8 bc d6 5c 22 3d
       0.12532072 0.054425906 -0.026419811 0.039639316
000340 17 b5 23 3c 73 6a 68 bd cd 1e 27 be 51 30 0b be
       0.009991906 -0.056742143 -0.16320343 -0.1359265
000350 52 2a 54 3d e4 ad e8 3c e9 fd 12 3d cb b1 b2 bd
       0.051798172 0.02840323 0.03588668 -0.087253176
000360 56 df fa 3c d4 50 2c be 7e 33 b9 3c f8 ee d7 bc
       0.030624073 -0.16827708 0.022607561 -0.026359066
000370 2c 04 34 bd 69 b7 8c bd 8c 4d 2e be 8b 62 13 be
       -0.04394929 -0.0687092 -0.1702177 -0.1439306
000380 0b f8 f1 bd bd f9 98 3b 42 8d 8d bc 9d 16 df 3d
       -0.118148886 0.004668443 -0.017279271 0.10892985
000390 ca 5b 1e be fc ba d2 3d 31 09 82 bd 55 15 1f bc
       -0.15464702 0.10289571 -0.06349409 -0.009709676
0003a0 59 ff ad bd 1b 73 e1 bd e1 cf 08 3e 7c 1b 07 3d
       -0.08495969 -0.11008283 0.1336055 0.032985196
0003b0 2a 63 3a be 3f ad aa 3c ed 84 20 3c c3 6f ca bc
       -0.1820189 0.020834563 0.009797317 -0.024711495
0003c0 68 2f 2d bd e1 aa 89 3d a8 75 ab bd 9f e3 d0 3d
       -0.04228154 0.06722046 -0.083720505 0.10199665
0003d0 e5 7d 77 3d 00 21 f0 bd bf b6 55 be 3c 9e 3f be
       0.060422797 -0.11725044 -0.20870493 -0.18712705
0003e0 a2 ac 1f be 4b ab 7b bd b9 cc c2 bd 94 6a 3f bd
       -0.15593198 -0.061442655 -0.09511704 -0.0467325
0003f0 55 fd 29 be ba d9 de bd 74 8f 96 3d c6 d3 ba 3d
       -0.16600545 -0.10881372 0.0735158 0.09122424

ll5.bias f4 [41]
000000 09 b4 75 3d dd 34 d7 3d 50 6c 76 bc 56 38 84 3d
       0.059986148 0.1050813 -0.015040472 0.06456058
000010 40 91 5b bd 70 b0 c0 3d 1a 5b 9f 3d 5c 63 6c 3d
       -0.053605318 0.09408653 0.07781048 0.057711944
000020 82 9c b3 bc 06 0b c7 3d 96 b8 95 3c d3 a5 83 3b
       -0.021925215 0.097188994 0.018276494 0.0040175705
000030 c9 cb 52 3d 61 5d 51 bd 40 54 4f bd b1 57 eb bb
       0.051463876 -0.051114444 -0.050617456 -0.0071820845
000040 fa 8f ad bc 4b b5 08 3c 13 ae 88 bd 36 28 e2 bc
       -0.021186817 0.008344005 -0.06673827 -0.027607065
000050 1e 2d a9 3b 7d d4 65 3d 56 6f 17 bd 89 f8 81 3d
       0.005162849 0.056110848 -0.036971413 0.063462324
000060 47 db 90 3d d3 a1 97 bd b4 ee 9f bd c8 1b 78 bd
       0.07073074 -0.074039124 -0.07809201 -0.06057337
000070 30 23 77 3d d2 57 10 bd 14 d4 51 bb 72 78 4c 3d
       0.06033629 -0.035240002 -0.0032017278 0.049919553
000080 f1 c0 ef bb 47 c3 3f bc 27 56 23 3d 7c 88 35 3d
       -0.0073167016 -0.011704273 0.039877083 0.044319615
000090 2f c2 97 3c 9b b5 9d bd f1 9e 1c 3c 5c 79 02 bb
       0.018525211 -0.07700654 0.009559379 -0.0019908762
0000a0 49 dd 32 bc
       -0.010917016
