cs145_ms20.pt (torch, 850157 bytes, 6 tensors)

weight f4 [512, 131]
000000 80 37 62 3c a7 4d d8 3d 41 79 27 bd a2 58 03 bd
       0.013807178 0.10561686 -0.04088712 -0.03206695
000010 1d 4c 47 bd 9d 3f a7 3b 3d 71 b9 3d 64 62 25 3e
       -0.04865657 0.005104019 0.090548016 0.16150814
000020 f0 11 fe bb 00 55 95 bc 52 68 4b 3d b8 88 ae 3c
       -0.007753603 -0.018229008 0.049660034 0.021305427
000030 23 13 d2 bd 05 37 da bd a6 5f af bd a0 1b 54 3b
       -0.10257556 -0.106550254 -0.08563165 0.0032365099
000040 96 9f 97 3d ca 77 35 3c 3d 9d 72 bd 97 7d 7b bd
       0.074034855 0.011075923 -0.059231985 -0.06139907
000050 92 6b 06 3e 45 06 d2 3d 79 65 51 bd 37 ed 45 3d
       0.13126972 0.10255102 -0.051122162 0.04832193
000060 90 db 2c bd ce ff f9 3c 11 e3 91 3d 46 50 18 bc
       -0.04220158 0.030517485 0.071233876 -0.009296482
000070 cf 4a 61 bd de 49 37 bd 97 a2 98 bd 4b 22 da 3d
       -0.055002984 -0.04474818 -0.074528866 0.10651072
000080 a9 f6 67 bd e3 f2 d6 bd c3 13 7b 3c a1 2b e1 bd
       -0.056631718 -0.10495546 0.015324536 -0.1099465
000090 cb c9 7a b8 1c 4f ca 3d 82 66 a5 3c f2 62 9a 3d
       -5.979258e-05 0.0987837 0.020190481 0.075384036
0000a0 87 88 81 3d 72 aa 1d bd 48 6e 7b bb 12 3e 8a bd
       0.06324869 -0.038492627 -0.0038365293 -0.0675012
0000b0 4f 3a a4 bd 1c 8d 19 3d 12 cb 61 3d 8a d3 51 3d
       -0.08018934 0.037488088 0.055125304 0.05122713
0000c0 46 cb 17 3c 9a 9c db 3c 00 06 e0 3b 83 e2 b1 3d
       0.009264773 0.026808072 0.0068366528 0.08685782
0000d0 22 3d ef bc 7e 9c a1 3d 45 90 cc 3a f5 5f be bd
       -0.029203955 0.07891177 0.001560696 -0.09295646
0000e0 73 5b 84 3c 8b 9d dd bd 53 ee f1 bc 9f 9e a1 bd
       0.016156888 -0.108210646 -0.029532587 -0.07891583
0000f0 1a ed 21 3d 77 9f b1 3a 4f 54 cc bc f0 d3 a0 3d
       0.03953276 0.0013551553 -0.024942545 0.07852924
000100 0d 92 a2 3c fa a9 4e 3c 01 af 57 3d ae e9 62 bc
       0.019845033 0.012613768 0.05265713 -0.013849659
000110 a1 fa c4 3d d6 f7 30 3e 02 eb 83 bb 2d 93 72 bd
       0.09618116 0.17282042 -0.004025818 -0.05922239
000120 ec c4 cb 3b 15 1c 97 3d 59 10 12 3e 22 b9 d6 3d
       0.0062185433 0.07378403 0.14264049 0.1048453
000130 83 40 cc 3d 1d a5 07 be d0 ab a8 3d c5 3e e1 bd
       0.09973242 -0.1324658 0.08235896 -0.109983005
000140 4c 73 e5 bc f1 d3 b6 3d f4 c2 10 3e a7 70 44 bd
       -0.02800908 0.08927143 0.14136869 -0.047958996
000150 9e ce c0 3d 82 68 8a 3d b2 53 b3 bd 2c d1 23 bd
       0.09414409 0.067582145 -0.08756198 -0.039994404
000160 f8 69 9b 3d 5b 3c 89 bd 53 21 81 3d b8 f3 6e 3d
       0.07588571 -0.06700965 0.06305184 0.058337897
000170 f8 f6 a5 3d a0 70 82 3d 6c 98 05 be d6 c7 e5 3c
       0.08103746 0.06369138 -0.13046426 0.02804939
000180 e9 0e 7e 3c ee 39 52 3d 25 f3 a4 3c 2a 6f a4 bd
       0.015506485 0.051324777 0.020135472 -0.08029015
000190 8a a2 81 3d 4e bb 96 3c 97 3f 7a bd 0c 98 02 3c
       0.0632983 0.01839986 -0.0610958 0.007970821
0001a0 e7 73 aa bd 6d 62 a9 bc 88 98 b4 bd 46 f5 ac bd
       -0.08322888 -0.020676816 -0.088181555 -0.0844522
0001b0 a1 dc ed 3c 43 cb e5 3d 0e a2 a6 bd ff 9b 0c 3e
       0.029035868 0.1122041 -0.08136378 0.13731383
0001c0 03 31 de bd 7d 19 fe 3d bc 1b 31 3e d2 f6 8a bd
       -0.10849192 0.12407205 0.17295736 -0.067853585
0001d0 3d 0e 26 bd 13 d9 74 3d 1e 4a ae 3d 2e 8a c3 3d
       -0.040540922 0.05977733 0.085102305 0.0954784
0001e0 65 b6 78 3c 9c c2 1c 3d 2b 3a 52 bd b9 9f 82 3a
       0.015180205 0.03827153 -0.051325005 0.0009965814
0001f0 15 e3 bd bd 88 1c 54 bd 35 c4 25 3d ac 58 9c bd
       -0.09271828 -0.051785022 0.04047032 -0.076341
000200 03 07 e9 bc f5 3e cc bd 98 3f 98 bc 7f 9f 9e 3b
       -0.028445726 -0.099729456 -0.018585011 0.0048407908
000210 15 ae 4d bd d0 ec 92 bb d5 35 05 3e b0 a2 1b bd
       -0.050214846 -0.0044837967 0.13008817 -0.037996948
000220 f6 01 57 3d c6 dc 2c 3d 6b 7a 09 3d 82 54 35 3d
       0.052492104 0.042202733 0.033564012 0.044270046
000230 4b 9f 2b 3e f6 a6 fc 3d 78 8d 26 3e b0 0d cf bb
       0.16759984 0.12336533 0.16264904 -0.0063187703
000240 83 90 e5 bd 34 6b d2 bd ca ac 73 3d d5 a7 0e bd
       -0.11209204 -0.102743536 0.059490956 -0.034828026
000250 09 9f 29 3d a3 1e 89 bd 5b 02 49 bd 49 d3 ce bd
       0.041411433 -0.066952966 -0.049074512 -0.10098893
000260 f2 59 06 3d 5d 97 d2 3d b9 d6 5c 3c cb d2 e0 bd
       0.032800622 0.102827765 0.013478928 -0.109777056
000270 c2 72 0c 3c 79 e6 2e bd 35 37 7c bd b6 98 5e bd
       0.008572282 -0.042700265 -0.061576087 -0.054344855
000280 26 ef 0a bd b5 4e 0a bd 23 91 a0 bd 4f cb ce bd
       -0.033919476 -0.033766467 -0.07840183 -0.10097372
000290 fe ab 9a bd 43 7c 79 bd e8 89 85 bd bd 90 27 3d
       -0.07552336 -0.06090952 -0.06520444 0.040909518
0002a0 5f 89 df bd 9f c2 cb bc 33 94 05 3e 50 06 ed bc
       -0.10914873 -0.024873076 0.13044815 -0.028933674
0002b0 7e 3e 85 3d 6c 9d d5 3d 1e 89 0f be c1 4e b0 3c
       0.0650606 0.104304165 -0.1401715 0.021521928
0002c0 f4 23 65 bb 5d 78 cd bc 7a 98 ab 3d 03 88 e5 ba
       -0.0034964057 -0.025081808 0.08378692 -0.0017511848
0002d0 90 30 86 3c 6c da 95 bc 12 8f 7f 3d d5 91 06 bd
       0.016380578 -0.018292628 0.0623923 -0.03285392
0002e0 71 86 d3 3c f8 c4 fc 3c 19 c7 1f bd 6b a7 6a 3d
       0.025820943 0.03085564 -0.039008234 0.05728857
0002f0 43 fe db bd ca e8 41 3d dd 92 ac 3d 52 a5 46 3d
       -0.10741856 0.047341146 0.084264494 0.048497505
000300 e2 6e 7c bd 00 60 7f 3b cf d0 9a bd fd c0 96 bd
       -0.061629184 0.0038967133 -0.07559358 -0.07361028
000310 47 88 50 bd fc 6a 60 3c 4b 42 55 bd 3f 81 dd 3a
       -0.050911214 0.013697382 -0.052065175 0.001689948
000320 a3 89 70 3d 86 39 dc 3c e1 74 cb bd 0f 18 af bd
       0.05872501 0.026882898 -0.09934402 -0.08549511
000330 af 3d 84 3b 8a 8d fb 3c 16 5d ca bc e8 56 e0 3d
       0.0040356736 0.03070714 -0.02470259 0.10954076
000340 80 68 01 3d 6b a3 bb 3c 00 7f 2a ba f1 1f 41 3d
       0.0315938 0.022905072 -0.000650391 0.047149602
000350 92 35 ed bc 6a 23 49 3d b5 77 98 bc 64 d5 95 bc
       -0.028956208 0.04910604 -0.018611768 -0.01829023
000360 ab f6 8b bd db 65 84 bd 96 ff ac 3d 27 1c 6c bc
       -0.068341576 -0.0646474 0.08447187 -0.014411009
000370 bc 8c 47 3d 4f 02 b1 3d 85 a3 e0 3d b3 ae 97 3d
       0.0487182 0.086430185 0.10968689 0.07406368
000380 05 11 9b bd 7f aa 99 bc ac bd bb bd c4 17 4e bd
       -0.075716056 -0.018758057 -0.091670364 -0.050315633
000390 09 0e c7 3c ab cc 56 3b 00 87 7a 3a 70 e6 01 3e
       0.024298685 0.00327758 0.000955686 0.12685561
0003a0 6a cb c8 bc 2e 81 17 3e 52 9b 77 3d cb 3b 88 bd
       -0.024511058 0.14795372 0.06045086 -0.066520296
0003b0 7a 81 20 3d f0 f9 7c bd b6 f8 90 bd 4e e1 cd 3d
       0.03918598 -0.061761796 -0.07078688 0.10052739
0003c0 1d 7f ad 3d f1 43 1c 3c ef c5 c2 bc 00 aa 12 39
       0.084715106 0.009537683 -0.023776023 0.00013986975
0003d0 59 0a dd 3c d5 35 96 bd 0d 5c ee 3b 4d d4 ba bd
       0.026982473 -0.073344864 0.007274157 -0.091225244
0003e0 3f 3c 43 bc 94 6e 5c bd b7 25 3d 3e 20 33 3d 3c
       -0.011916219 -0.053816393 0.18471418 0.011547834
0003f0 b9 e1 00 3e 9b c6 9c 3c fe 76 54 bd bb 12 4e bd
       0.12586106 0.019137671 -0.051871292 -0.05031083

bias f4 [512]
000000 16 68 c0 3d 49 5c 6b 3d b2 1f d1 3d 25 44 86 3d
       0.09394853 0.057461057 0.102111235 0.06555966
000010 af 73 a4 bb 5a af 3d 3d 7c 71 c6 3d cb 61 33 3e
       -0.0050186734 0.046309806 0.09689614 0.17517774
000020 70 17 96 3d 9d 40 01 3e 6e d8 56 bb ae 2e b3 bb
       0.07328689 0.12622304 -0.003278281 -0.005468211
000030 d8 db dd 3d 66 2c fb 3d 25 09 e0 3d 85 d3 23 3e
       0.108329475 0.12264328 0.10939244 0.15998657
000040 fe 57 fb 3d 8a 4c 42 3d fa bd 12 bc de 4d 73 3d
       0.122726426 0.047436275 -0.008956427 0.05940043
000050 03 7d 0f 3e 46 de df 3d 56 d9 0f 3e b0 40 c2 bb
       0.14012532 0.10931067 0.14047751 -0.0059281215
000060 f2 73 0b 3e dd 6f 0b 3e c7 09 85 bc de 13 ab 3d
       0.13618448 0.13616891 -0.016240014 0.08353399
000070 0d 65 f5 3d 12 3f 9c 3d 96 d9 ff 3d 34 f5 08 3c
       0.119821645 0.07629217 0.12492673 0.008359242
000080 a5 45 da 3d ef 19 30 3d 3d 5b c9 3d ae cd c8 3c
       0.10657815 0.042993482 0.098318554 0.024512138
000090 0e a9 ee 3d f7 d2 31 3e 19 2c 10 3e aa 62 98 3c
       0.116533384 0.17365633 0.14079322 0.018601734
0000a0 64 3c 32 3e 45 96 06 3e 4b cb cc 3c 58 66 b2 3c
       0.1740585 0.13143261 0.024999281 0.021777317
0000b0 9f ac a5 bb fe a3 87 3d 77 9a 2e 3d f4 48 f1 3d
       -0.0050559784 0.06623076 0.042627778 0.11781493
0000c0 b9 c1 d2 3d b7 18 e5 3c 01 c1 90 3c 84 56 0a 3e
       0.10290856 0.027965887 0.017670156 0.13509566
0000d0 ef 0d 3d 3e 91 b0 0d bc 34 c3 69 3d 1c 5d 0b 3e
       0.18462346 -0.008648054 0.057070926 0.13609737
0000e0 e3 7c c0 3c 2c 6b b7 3d f0 18 2e 3d a8 b4 dd 3d
       0.02349705 0.08955988 0.04250425 0.10825473
0000f0 f8 27 7b 3d 27 ed d1 3a df cc 95 3d 7f 54 bd 3d
       0.061317414 0.0016016111 0.07314467 0.09244632
000100 f7 17 4b 3d 91 cf a0 3d 55 72 22 3d cb df e4 3d
       0.0495834 0.0785209 0.039659817 0.111754976
000110 9d 35 07 3d 02 88 87 3d 24 28 0a 3e 7e c6 de 3c
       0.033010114 0.06617738 0.13491875 0.027194258
000120 22 34 bd 3d 96 0a 96 3d e7 6f b2 3d bb 2d ab 3d
       0.09238459 0.07326238 0.0871275 0.08358332
000130 9b 0d 53 39 2a fb 16 3e 46 5a c0 bc 60 87 8f 3d
       0.00020127597 0.14744249 -0.023480546 0.070082426
000140 68 df 0f 3e 1d 38 fc 3d 34 01 a0 3c 76 36 96 3d
       0.14050066 0.1231539 0.019531824 0.07334606
000150 93 41 eb 3d e4 09 63 3d 34 f8 49 3d c7 ec 03 3d
       0.11487117 0.055429354 0.04930897 0.03220823
000160 43 bf 16 3c 2a a3 2b 3c 31 3b 78 3d 77 c6 4d 3d
       0.009200874 0.010475913 0.060603324 0.0502381
000170 a5 b2 41 3d 7c a3 2a 3e 87 8c 84 3a 54 90 08 3d
       0.04728951 0.16663927 0.0010112681 0.033340767
000180 14 dc ec 3c 55 a4 00 3e 81 7f 47 3d 8e 2f 01 3e
       0.028913535 0.12562688 0.04870558 0.12615797
000190 92 25 ac 3d 40 b6 4c 3d ae b7 bf 3d 2c be a3 3c
       0.084056035 0.049978495 0.09361206 0.019988142
0001a0 29 62 c8 3d c2 07 e2 3d 72 e3 75 3d ca ac e0 3d
       0.097843476 0.11036636 0.060031362 0.10970457
0001b0 b0 1c e9 3d 1b ae fc 3d 55 a4 20 3e 99 47 0c 3e
       0.11382425 0.123378955 0.15687688 0.13699187
0001c0 d1 14 83 3d 93 33 11 3d ee ba a5 3d f1 ea 27 3e
       0.06400455 0.035449576 0.08092295 0.16398217
0001d0 ec ce 21 3e 8c d6 d8 3d 34 b9 c8 3d 8a d9 18 3e
       0.1580159 0.105877966 0.0980095 0.14926735
0001e0 e7 01 ba 3c 3f ee a1 3d 78 f6 b3 3d 51 bd ef 3d
       0.022705985 0.0790677 0.087872446 0.11706031
0001f0 ba a3 c6 3d 5d 14 e6 3d f5 d5 53 3c 7e 2b 39 3e
       0.09699197 0.11234353 0.012929429 0.18082997
000200 e9 50 ef 3d 7b eb aa 3a 3b 1e ff 3d 00 84 1d 3d
       0.11685354 0.0013040149 0.12456938 0.038455963
000210 22 0e fc 3c 17 30 17 3d 4f da 0d 3d a4 b2 91 3d
       0.030768458 0.036911096 0.034632023 0.07114151
000220 c1 bc c7 3d 8b d4 7d 3d e1 a6 f3 3d 79 dd 7d 3c
       0.09752799 0.061970275 0.11897064 0.015494698
000230 ae 57 b1 3c 9f 90 16 3e f0 2b 0d 3e 24 68 cc 3d
       0.021648254 0.14703606 0.13786292 0.09980801
000240 6f 88 cf 3c 7e 46 48 3d 63 68 79 3d 91 c5 d8 3d
       0.025333611 0.04889535 0.060890567 0.10584558
000250 68 5a 16 3e a7 f4 19 3e 82 c3 19 3d a2 2d e3 3d
       0.14682925 0.15034734 0.037539966 0.11092688
000260 9a 4a 04 3e 51 ea 67 3d 6e 7a e6 3d 16 37 da 3d
       0.12919083 0.056619946 0.1125382 0.10655038
000270 8f 69 00 3c 61 da 0a 3e 52 05 2a 3e 29 78 e6 3d
       0.007837667 0.13559867 0.16603592 0.112533875
000280 fa ab a3 3d a2 bd e8 3a 46 57 6f 3d 4f b0 21 3e
       0.07991786 0.001775671 0.05843284 0.15789913
000290 10 fb 7a 3d cf 80 be 3c d6 28 c4 3d d7 7b 1d 3e
       0.061274588 0.02325478 0.09578101 0.15379272
0002a0 92 74 90 3d 33 f0 1a 3e 96 1c a3 3d 74 30 f0 3d
       0.07053484 0.15130691 0.07964437 0.11727992
0002b0 aa 3e 23 3e 6d 7a 3e 3c e3 86 d1 3d 97 e7 2d 3e
       0.15941873 0.011625868 0.10230806 0.16982876
0002c0 79 fe a2 3d 6c e0 b4 3d c3 5e 2b 3e 55 7e 91 3d
       0.07958693 0.088318676 0.16735367 0.07104174
0002d0 a3 c9 99 3d 81 83 b9 3d d2 8b 1d bd 8d b9 9f 3d
       0.07509162 0.090582855 -0.03846342 0.07799063
0002e0 35 e9 8d 3d 1e e1 eb 3d 32 14 06 3d f9 53 98 3d
       0.06929246 0.11517547 0.032734104 0.074378915
0002f0 96 7a fc 3d 0c e1 25 3d 36 00 60 3c 78 9e 6a 3d
       0.12328069 0.040497825 0.013671925 0.057280034
000300 97 ec 9c 3d e0 54 0d 3e b3 67 ab 3c ba 37 8e 3d
       0.076623134 0.13801908 0.020923471 0.06944223
000310 77 e9 4f 3d 79 3a 1b 3e 52 42 9d 3c 46 03 06 3e
       0.05075976 0.15159024 0.019196663 0.13087186
000320 37 f6 f2 3d 0e ff 09 3d e6 bf ad 3a b7 75 51 3d
       0.11863368 0.033690505 0.0013256043 0.051137652
000330 29 67 04 3d 4e 2e a6 3d e8 e4 3d 3c 1f 04 1a 3e
       0.032324944 0.08114301 0.01159022 0.15040635
000340 71 eb 48 3d a0 cd ea 3d 99 f3 03 3e 6d 86 ac 3d
       0.04905266 0.11465001 0.12885894 0.08424077
000350 9e 07 88 3d 4f 5b d7 3d 58 69 37 3d c6 57 0f 3e
       0.06642078 0.105154626 0.044778198 0.13998327
000360 54 2c ea 3d e7 33 d2 3c 27 6d a8 bc 3d 83 fe 3c
       0.11434236 0.025659515 -0.02055986 0.031068439
000370 84 b5 b5 3d c4 2f 28 3d 4e f7 7c 3c 2e 0c c4 3c
       0.08872512 0.041061178 0.015439821 0.023931589
000380 a9 29 b3 bb 46 9f 6d 3d e1 54 e8 3b f5 a2 e2 3a
       -0.0054676128 0.058013223 0.0070901965 0.0017290997
000390 ee ff 9d 3d 96 9e ab 3b 0c b1 a1 3d 16 e3 9d 3d
       0.0771483 0.005237411 0.07895097 0.07709329
0003a0 49 df 8e 3d f5 cb 00 3e ea d4 9b 3d ab 58 ec 3d
       0.06976182 0.12577803 0.076089695 0.115403496
0003b0 4b 21 fb 3d 85 c9 f1 3d 64 3d 8d bb 74 b7 d6 3d
       0.122622095 0.11806015 -0.004310297 0.1048421
0003c0 c0 90 69 3d 5c ce 45 bc 67 8a c9 3c f4 98 ef 3d
       0.05702281 -0.012073126 0.024602128 0.11699095
0003d0 a1 c9 4d 3d 57 a3 95 3d 57 bf 07 3e 76 60 29 3d
       0.050241116 0.07306545 0.13256584 0.041351758
0003e0 6d e2 23 3d 25 ab 61 3d 73 de ad 3d 8b b6 0c 3e
       0.04001086 0.055094857 0.084896944 0.1374151
0003f0 3f 35 7e 3d be e8 6f 3d 29 00 06 3e cd cf 72 3d
       0.0620625 0.05857157 0.13085999 0.059280206

weight f4 [256, 512]
000000 06 fb 15 bd f5 54 c1 bc a6 92 bd 3d a7 37 de 3d
       -0.036616348 -0.023600081 0.092564866 0.108504586
000010 4e 6b 02 3e 83 22 5f 3d d5 98 ea 3c b5 d0 57 bc
       0.12736246 0.054476272 0.02863733 -0.013172318
000020 d5 57 7c bd 38 ee f0 bd 11 15 ba 3c fe 11 3d 3d
       -0.0616072 -0.117641866 0.022715123 0.046159737
000030 4d c3 86 bc d2 71 86 3d 60 02 0f bc 24 59 2b 3d
       -0.016450549 0.06564678 -0.008728594 0.041833058
000040 99 bd ee bd a2 a4 be 3c 4d db 85 bd 0b 09 b3 bd
       -0.11657257 0.023271862 -0.06535969 -0.08741959
000050 df 7e b6 bd bc 0b c9 bd 6b c5 c1 bc f6 9c 98 3d
       -0.089109175 -0.09816691 -0.023653707 0.07451813
000060 4b 0e a1 3d 44 91 48 3d 54 5d 88 3d c7 21 0b 3d
       0.07864054 0.04896666 0.06658426 0.03396776
000070 39 3b 05 bd 7e 23 b5 3d 1d ac 9c bc 84 4b 33 3d
       -0.032527182 0.0884466 -0.019125039 0.04377319
000080 f2 d2 95 3d 91 96 bf 3b 47 d7 71 3d 52 a6 cc 3c
       0.07315625 0.0058468063 0.059043195 0.024981651
000090 6a 2a b7 3c dd 78 71 bc 1b e3 b5 3d 72 b6 0c 3d
       0.022359092 -0.014738289 0.088812076 0.03435368
0000a0 3a 77 29 bd a0 91 a8 3d cb 9c 38 3d 14 87 8a 3d
       -0.04137347 0.08230901 0.045071404 0.06764045
0000b0 1d 6d ad 3d 37 5f 0a bd 75 e5 06 3d 74 c1 88 bd
       0.08468077 -0.03378221 0.03293367 -0.06677523
0000c0 21 39 3f bc 70 62 81 bc 04 8c c7 3d 9e 02 ac bd
       -0.011671335 -0.015794009 0.09743503 -0.08398937
0000d0 70 e3 ce bd 0d c6 6b 3d e0 43 52 3d 62 3f cc 3d
       -0.10101974 0.057561923 0.051334262 0.09973027
0000e0 1b b2 06 be 1a d1 a1 bc 3f cc bc bd 1b 61 15 bd
       -0.1315388 -0.019753028 -0.09218644 -0.03646956
0000f0 7c e1 ca bc f2 b4 9a 3d c8 8c 28 bb 91 ae 9a 3d
       -0.024765722 0.07554044 -0.0025718678 0.07552827
000100 4c f8 01 3d e0 e7 55 bd 95 a1 98 3d 19 35 52 bd
       0.031730935 -0.052223086 0.07452694 -0.05132017
000110 08 7f 84 3d 20 b2 4f 3d fd 1b 5e bc ab 4c 0d 3d
       0.06469542 0.050706983 -0.013556478 0.034496944
000120 3c 93 e7 3d 37 b1 86 3d a7 e5 30 bd cd 21 29 3d
       0.113073796 0.0657677 -0.043187764 0.041292
000130 a6 df 58 3d 62 2a 8c 3d c4 03 2e 3d f9 32 e3 3b
       0.052947663 0.068440214 0.04248406 0.0069335666
000140 88 37 6f 3c ed c5 d8 3c 31 59 fc bc e5 61 9e 3d
       0.014600642 0.026461566 -0.030804249 0.07733516
000150 53 c4 e8 3c 16 9f a2 bd ae d0 8a bb 11 5b 96 3d
       0.028413927 -0.079404995 -0.0042363023 0.07341588
000160 2c c2 13 3d cb 7c ce bd 94 7e f0 bc ba 02 b3 bd
       0.03607385 -0.10082396 -0.029357232 -0.087407544
000170 59 22 12 3d 00 49 04 3d 41 ed 30 3d 27 90 8f 3d
       0.035677288 0.03229618 0.043195013 0.07009917
000180 2b 92 b6 bd 9a c4 50 3d 09 79 c1 bd 6c 66 a4 bc
       -0.08914598 0.050968744 -0.09446914 -0.02006837
000190 e0 d5 99 3d 61 5d f6 3d 9a 8a 93 bb 84 0b 03 bd
       0.075114965 0.12029529 -0.0045026066 -0.031993404
0001a0 41 17 2f 3d f4 96 78 3d d9 a1 53 3d 20 f4 ae bd
       0.042746786 0.060690835 0.05166802 -0.08542657
0001b0 b2 7a d8 3d 30 9b 30 bb 0f 7c aa bd fa 1e 0f 3d
       0.10570277 -0.0026947968 -0.083244435 0.03494165
0001c0 cc f2 ce 3c d0 73 41 3d ba 5f 24 bd f3 05 e8 3d
       0.025262259 0.047229588 -0.040130354 0.1132926
0001d0 5e 6f a1 3d 01 34 1b bd 14 af a0 3d 6a a6 aa bc
       0.0788257 -0.03789139 0.078458935 -0.020831306
0001e0 21 43 a2 bc 63 52 40 3c 92 6d 19 3d f3 2f 3a bd
       -0.0198074 0.0117383925 0.03745801 -0.045455884
0001f0 2a 63 7c 3c 23 91 4c bc 47 69 57 3d a4 9c 58 3d
       0.015404502 -0.012485775 0.052590635 0.05288376
000200 51 cf e5 3d 94 5e 97 bd 7e e4 31 ba f3 b0 52 3d
       0.11221183 -0.07391086 -0.0006786062 0.051438283
000210 16 b9 bf 3c 84 50 1b bc a2 1b b2 3c 38 db 2d 3d
       0.023403686 -0.009479646 0.021741692 0.04244539
000220 24 30 39 3c de 76 d9 3d 19 13 6d 3b 3b 1a c1 bd
       0.0113029815 0.10618375 0.0036174713 -0.09428831
000230 37 04 fa 3d 6a 0a 4a 3c b5 e4 7e bd 73 a4 05 3d
       0.12207835 0.0123315845 -0.06222983 0.032627534
000240 36 f9 46 bd 34 11 0a 3d ad 34 60 bd af d7 e4 bd
       -0.04857751 0.033707812 -0.054737736 -0.11173951
000250 09 3e 35 3c ef dd 3a bd 66 e3 9b 3c 1e 9d a5 3d
       0.011062154 -0.04562181 0.01902933 0.08086608
000260 bc e3 8f 3c ea fd 8f 3d cb 35 b3 3d b0 b8 50 bd
       0.017564647 0.07030852 0.087504946 -0.05095738
000270 2a 12 7f 3d c2 26 77 bc 56 05 8d bd c3 e1 aa 3d
       0.062273182 -0.015084924 -0.068857834 0.08343842
000280 67 c0 93 3c f2 56 32 bd aa 46 65 3b 1e e5 c0 3c
       0.01803608 -0.04353995 0.0034984746 0.023546752
000290 f8 d8 73 bd 5b 09 26 3d 3d 1b 1a bd 8a 2b c7 bb
       -0.05953309 0.040536266 -0.037623633 -0.0060781883
0002a0 d4 25 9e 3d 00 5b 9d 3d 64 a9 b1 38 20 e5 9d 3d
       0.07722059 0.076833725 8.471569e-05 0.07709718
0002b0 93 86 5a bb 69 f6 8c 3c d3 1e 17 3b a3 42 65 bb
       -0.0033344373 0.017207341 0.0023059144 -0.0034982346
0002c0 51 5e b1 3d 3d 47 01 3d 6f 53 46 bd 1a de 9f 3d
       0.086605676 0.03156208 -0.048419412 0.078060344
0002d0 42 71 01 bd 1b 8d 56 bc 1c b2 8d 3d 2c 65 ed 3c
       -0.03160215 -0.013095166 0.06918737 0.028978907
0002e0 13 0d b0 bd bc c7 91 3c f6 34 e7 bc 7f 17 e9 3c
       -0.08596244 0.017795436 -0.028223496 0.028453587
0002f0 44 8c 2c 3d ba c5 88 3c 14 53 96 3d 6e 23 c9 3c
       0.042125955 0.016695846 0.07340065 0.024553027
000300 0b 11 06 bd bf 2d a5 bc f7 ff 82 3d b4 87 fa 3c
       -0.032731097 -0.020163415 0.06396478 0.030582286
000310 f4 ae b5 bd 63 04 63 3d f5 30 16 3c 2b 3f 85 bc
       -0.0887126 0.055424105 0.009166946 -0.016265472
000320 6c c9 5b 37 4d 14 3d 3d 1a 32 82 3d 53 79 45 3d
       1.3100314e-05 0.04616194 0.06357212 0.048211407
000330 7a 5c 6d bc a6 32 6f bd db d7 5b 3d 91 45 9d 3d
       -0.01448738 -0.05839791 0.053672653 0.07679284
000340 f5 54 24 3d 45 4b e1 bc 1f 45 d0 bb fe 5d 30 bd
       0.040120084 -0.027501712 -0.006355896 -0.043058388
000350 ee bf d1 3d 7a ae cb 38 82 f6 8b bc 99 e9 4d 3d
       0.10241686 9.712293e-05 -0.017085318 0.050271604
000360 52 d1 a1 3d d8 25 72 bd 83 38 ba 3d 95 7f 39 3d
       0.07901253 -0.05911812 0.0909281 0.045287687
000370 cf 16 45 3d 10 7e bc 3d 78 d6 04 3d 7d 1e d3 3c
       0.048117455 0.09203732 0.032431096 0.025771374
000380 7d 52 c7 3c e0 eb 83 3d 36 a5 f7 39 33 7b 51 bd
       0.024331326 0.06441474 0.00047234603 -0.051142883
000390 84 fb 3f bd 79 ac 0a bd c6 a7 ff bc 77 ff 3e bd
       -0.046870723 -0.03385589 -0.03120793 -0.04663035
0003a0 7c ea e3 3d 53 f4 df 3b 52 5d 34 3d 5f 32 61 3b
       0.11128709 0.0068345456 0.04403431 0.00343623
0003b0 bb 84 e1 3c 74 bd f7 3a d2 1f ff 3c d5 ce 71 3c
       0.027529111 0.0018901066 0.031143103 0.014758785
0003c0 bd 64 86 bd 8a d8 9f 3d d0 d2 54 3d 62 f2 d7 bd
       -0.06562183 0.078049734 0.05195886 -0.10544278
0003d0 e0 ba 8d 3d 28 38 45 3d d3 8d 6c 3d ae a5 db 3c
       0.06920409 0.048149258 0.05775244 0.0268124
0003e0 b4 b9 df 3c cc 24 0a 3d 1b f2 7a 3d 44 98 84 bd
       0.02731023 0.0337265 0.061266046 -0.06474355
0003f0 7e ec fa 3c 3d b3 87 bd bb a6 fa 3d 1e 4c 67 3c
       0.030630346 -0.06625984 0.122388326 0.014117269

bias f4 [256]
000000 a1 82 43 3d d8 9a 25 bc 54 8e 81 bc b8 f3 04 bd
       0.047732 -0.010107718 -0.015814938 -0.03245899
000010 13 dd 7b bb bd d4 74 3d 0d 78 c9 bc c9 b5 a4 bb
       -0.003843133 0.059773196 -0.024593377 -0.0050265533
000020 6b 5f bc 3c cb 91 92 bb 97 a4 42 bc b3 18 29 3d
       0.022994718 -0.0044729463 -0.011880062 0.04128332
000030 9a 27 49 3d cc 19 e5 3c 28 3e f5 bb a1 98 c1 3c
       0.049110033 0.027966402 -0.0074842162 0.02363235
000040 f8 c2 93 3d ff c3 2b 3d b8 e8 ac 3d 3b a3 44 3d
       0.07214922 0.041934963 0.08442825 0.04800723
000050 db f3 2a bd 8d 11 76 bc 7a e1 71 3c 54 f2 57 bd
       -0.041736465 -0.015018833 0.01476323 -0.052721336
000060 c4 0d 49 3c ff 65 e3 3c 38 fe 4d bd 1d c6 55 3d
       0.012271348 0.027758596 -0.05029127 0.05219089
000070 e6 29 04 3b 9a 6c fd 39 a5 d4 7a bc df b4 de 3c
       0.0020166575 0.00048336835 -0.0153094875 0.027185855
000080 f1 a2 b7 3b 94 f6 6c bd 28 08 c8 3d 95 8f 42 bb
       0.005604141 -0.057852343 0.09767181 -0.0029687632
000090 d3 c5 b7 bc d9 21 83 3b 12 4c fc 3c 27 0b db 3b
       -0.022433197 0.0040018377 0.030797992 0.006684679
0000a0 81 c6 15 3d b5 85 8c 3d f5 2d 4a 3c be d8 d5 3b
       0.03656626 0.0686144 0.012340059 0.006526082
0000b0 78 95 20 3d 96 5c 5b 3d 76 ae 92 bc 13 03 0a 3d
       0.039205045 0.053555094 -0.017905455 0.033694338
0000c0 a1 34 9a bc ea b0 14 3d a6 4b 19 3d 48 22 17 3d
       -0.018823924 0.03630153 0.03742566 0.036897928
0000d0 0b 84 67 3d 60 0c 1d bc c3 d4 32 bd ed 1e 29 3d
       0.05652241 -0.00958547 -0.043659937 0.04128926
0000e0 f4 51 f2 3c 2a 55 8a 3d 74 62 95 3d f6 dd 80 3d
       0.029580094 0.06754525 0.07294169 0.06292336
0000f0 30 28 e2 bc 68 a0 54 3d 7c c9 95 3c c7 eb e1 bb
       -0.027607054 0.051910788 0.018284552 -0.006894562
000100 30 eb 18 bc 4b d5 a9 bb f2 6a a8 3d c1 77 da 3c
       -0.009333417 -0.005182897 0.08223523 0.026668431
000110 b5 ce 55 3d 6d e5 19 3d 53 d8 07 3d 22 7f f1 bb
       0.052199084 0.037572313 0.033165287 -0.0073698917
000120 73 83 9d 3d 53 ca 09 3a 74 b5 f6 3c 1d 8a 7f 3d
       0.076910876 0.0005256284 0.03011582 0.062387574
000130 1b 63 2b bd 16 a0 8a 3d 22 0f 8b 3d 0c 2e 45 bc
       -0.04184256 0.06768815 0.06789996 -0.012034904
000140 5b c7 44 bd 1e df 35 bc 22 ee 6d 3b 07 f0 f6 3d
       -0.048041683 -0.011100559 0.0036305268 0.120575
000150 6a 3f 47 3d 16 12 fa 3c 38 6c 13 3d 15 78 33 bc
       0.04864446 0.030526202 0.035991877 -0.010953923
000160 a3 11 99 bb e6 47 35 bb 23 af 5e 3d 05 58 60 bb
       -0.004671292 -0.0027661263 0.054366242 -0.0034232151
000170 d6 1b 0c bc f6 d5 fe 39 b0 66 41 3c 0b a0 63 3d
       -0.0085515585 0.0004860607 0.011804268 0.05557255
000180 31 f7 88 bc 98 87 1f 3c 31 f9 99 37 31 cc 75 3d
       -0.016719433 0.009736918 1.835506e-05 0.060009185
000190 3f c1 a2 3d 88 c3 36 3d 66 ab 60 3d 6a 06 25 3d
       0.07947015 0.044620067 0.05485096 0.04028932
0001a0 7f cb a3 3c d4 4a 20 3d 98 b0 67 3d 2c 89 a3 bc
       0.019994495 0.03913386 0.056564897 -0.01996287
0001b0 2a 72 11 3d 28 65 0d 3d 3f 53 07 bd 3c 93 4a ba
       0.035509266 0.0345203 -0.033038374 -0.0007727628
0001c0 87 9f 32 3d 48 4b 76 3d 52 e6 91 bc 5d ab ae 3d
       0.04360917 0.060130388 -0.01781002 0.08528779
0001d0 53 66 88 3d b0 c2 4a 3c 7c 8d 2b bd f8 12 2a bd
       0.06660142 0.012375519 -0.041882977 -0.041521996
0001e0 d9 06 7a bc e3 85 0b 3d 51 fc 98 3b 46 b9 1d 3c
       -0.015260422 0.03406323 0.0046687503 0.009626692
0001f0 f0 89 82 3d 91 32 4d 3d a7 5a 93 bc 9e 43 69 bc
       0.06373966 0.050097052 -0.017987562 -0.014237313
000200 ed f9 c7 bb 88 22 2d 3d 9d 9c 5d bd b7 f0 43 3d
       -0.0061027915 0.04226926 -0.054104436 0.047836985
000210 1f 91 ac bc 6f 77 d8 bb 5e 9c 1e 3d 7e ce 3d bc
       -0.021065293 -0.0066060345 0.038723342 -0.011584876
000220 e5 16 fe 3c 65 28 4d bd f6 59 89 3b 58 10 99 3c
       0.031016776 -0.05008735 0.0041916324 0.018684551
000230 08 df 6e 3d 49 3d 9c 3c 23 19 64 bd 56 74 78 3d
       0.058318168 0.019072192 -0.055688035 0.06065782
000240 0a 0c 86 3c 37 99 34 bd 87 22 66 bd 99 40 8a 3c
       0.016363163 -0.04409143 -0.05618527 0.016876506
000250 dc 84 63 3d ec 8d 88 3d 9a 53 63 3c 47 43 d0 3a
       0.055546626 0.066676944 0.013874913 0.0015889191
000260 ef 8e f2 bb ba a9 18 3d 28 f2 87 3d c9 66 66 bc
       -0.007402293 0.03727124 0.066379845 -0.014062592
000270 2b 37 15 3d eb be 28 3d 5f 36 54 3d 52 3b ff bc
       0.036429565 0.0411977 0.051809665 -0.031156216
000280 71 75 b3 bc 46 bd 89 3d ab f6 67 3d 4b 27 06 3d
       -0.021906586 0.06725554 0.056631725 0.032752316
000290 3a 17 a0 3d 4b 71 21 3d 58 b6 3f bc ae 74 4c bc
       0.0781693 0.039414685 -0.011701189 -0.0124789905
0002a0 c0 17 16 3d bd 35 49 bc 24 23 91 3c b1 3c 41 3d
       0.036643744 -0.012280879 0.017716952 0.04717702
0002b0 0a fb 41 bc 1e 66 83 39 fa 9d 82 ba 63 f8 19 3d
       -0.0118396375 0.0002506235 -0.0009965294 0.037590396
0002c0 06 8f c4 3c 51 ff 52 bc 18 7b 18 3d 29 a1 de 3a
       0.02399398 -0.012878255 0.037226766 0.0016985285
0002d0 2a f2 54 3d 94 ec 26 3d 98 7a 48 3d a6 d6 6a 3d
       0.05198876 0.040752962 0.04894504 0.05733361
0002e0 11 9a b3 3b d8 02 11 bc 4c 6f 15 bc 5c 60 d1 bc
       0.0054810126 -0.008850776 -0.0091207735 -0.025558643
0002f0 3f b9 43 bc 54 e0 57 3d 45 fd 57 3d 7a fa dd bc
       -0.011946022 0.05270417 0.05273177 -0.027096976
000300 ad f1 e5 bc bd a7 08 3c d9 79 55 3d 75 0c 42 3d
       -0.028069342 0.008340773 0.052118156 0.04737516
000310 3c d3 8f bc 62 9f 0c 3c e6 9c 1b 3d 1b 61 29 3c
       -0.01755678 0.008582922 0.037991427 0.010338093
000320 f4 6d 9c bc 55 90 09 3c 95 db 05 3d 18 74 4e 3c
       -0.019095398 0.008396228 0.032680113 0.012600921
000330 f6 03 7f 3c 93 64 9e 3c 9b f7 c5 3b 22 6c 7d bc
       0.015564909 0.019335067 0.0060414798 -0.015467675
000340 61 a0 09 3d 10 af 2c 3d 8b d3 dd 3a ad d6 1e 3d
       0.033600215 0.04215914 0.0016924007 0.03877895
000350 65 ea 0a bd 0b 7d 37 3d 6d 20 9d 3c 17 ba 51 3d
       -0.033914942 0.044796985 0.0191805 0.05120286
000360 ca 97 8e bc de fe 52 3c f7 aa 9a bc 9d 73 61 3d
       -0.017406363 0.012878148 -0.01888035 0.055041898
000370 00 b8 00 3d 73 ff e2 bb 11 7d 72 3c c5 95 19 3d
       0.031425476 -0.0069274246 0.014800326 0.037496347
000380 ba 73 65 3c 19 d7 fd 3c 59 c5 6a 3c 1a 72 16 3d
       0.014004642 0.030986356 0.014329278 0.03672991
000390 3d 9d 81 3c e8 e8 86 3c 45 59 f3 3b 34 fc 49 bc
       0.015822047 0.01646848 0.0074264132 -0.012328196
0003a0 13 db 02 bd d6 cf 8c 3c 7b f1 20 bd 7c 04 ab 3d
       -0.031947207 0.017188948 -0.039292794 0.08350465
0003b0 dc 0f 6c bb 5c a9 2f 3d 44 d2 02 bd ad 39 03 3d
       -0.0036020195 0.042886123 -0.031938806 0.032037426
0003c0 b0 1e 70 3c 81 d6 fa 3c 8a 6a 10 bc 7c ac 4d 3d
       0.014655754 0.030619862 -0.008814463 0.050213322
0003d0 f5 44 23 3d 6b 73 96 bc 29 29 f4 bc 6c f3 b5 3d
       0.039860684 -0.018365582 -0.029804783 0.0888432
0003e0 6b d7 a4 3c 5d 75 6d 3d 37 ca e7 bc d7 9f e9 3c
       0.02012225 0.057973254 -0.028294666 0.0285186
0003f0 ac f5 8e 3d 16 87 b4 bc b9 f1 98 bc 6b d8 a0 bb
       0.06980452 -0.02203707 -0.01866995 -0.0049086115

weight f4 [41, 256]
000000 9c 49 2a 3d 26 b1 22 bd 16 af 94 bc 9a 7d 7c bd
       0.041574106 -0.039719723 -0.018149894 -0.06164322
000010 17 87 16 be 05 6b 2c 3b 34 47 99 3c 66 2f b0 3d
       -0.1469997 0.0026308906 0.01871071 0.086027905
000020 9d 14 f1 3c 60 f0 a5 3d 45 63 bd bc 51 c5 13 be
       0.029428774 0.081024885 -0.023118624 -0.14430739
000030 05 1c a7 bd 36 ec d2 3d 10 bc e3 3b 54 75 b2 bd
       -0.08159641 0.1029896 0.006949909 -0.08713785
000040 e1 f2 a9 3d 04 e8 32 3d db 62 c8 3c a3 eb 21 be
       0.082982786 0.0436783 0.0244612 -0.15812545
000050 56 1c 12 3b ab 3b 85 bd 33 3c 99 3d 69 07 43 3b
       0.0022294722 -0.065055214 0.07482185 0.0029759055
000060 06 07 c9 bd 59 6a 8a bc 21 8e 08 bd 2a 01 93 b9
       -0.09815793 -0.016896414 -0.03333867 -0.00028038892
000070 be 2a 8a 3d cf eb 11 be c0 ee b0 bd bf a2 57 3d
       0.06746434 -0.1425011 -0.08639288 0.05264544
000080 25 2e a8 bd 88 3c d9 bb d0 6a 35 be 58 33 aa bd
       -0.08211926 -0.0066295303 -0.17716527 -0.08310574
000090 bd e9 67 3c c4 07 b6 bd 4f 52 f3 bd ee 19 a1 bd
       0.014154849 -0.088882 -0.118809335 -0.07866274
0000a0 36 f9 ce bd 0a 35 20 3d 57 c5 22 be 0b 82 46 bd
       -0.10106127 0.039113082 -0.15895592 -0.048463862
0000b0 bb 8c 52 3d 07 ac 65 3d 32 c3 83 3d d9 4e 0e 3d
       0.051403742 0.05607226 0.06433715 0.034743164
0000c0 55 29 1f be 95 e6 3d 3d 11 95 60 3d 78 6e 25 bd
       -0.1554311 0.04636248 0.05482966 -0.040388554
0000d0 7b 4d 9a 3d c5 40 7e bd c1 cb 6e bd 4f 4f d3 bd
       0.075343095 -0.062073488 -0.058299784 -0.10317861
0000e0 37 48 f6 3b 04 9f a1 bd d4 83 1d bd 77 94 b9 bd
       0.007515933 -0.07891658 -0.0384558 -0.090615205
0000f0 2d 74 dc 3d f1 1d 03 be 62 16 f4 3c ea 71 88 bd
       0.10764346 -0.1280439 0.02979583 -0.066623524
000100 d1 94 06 be 01 90 94 3c d3 3f df 3d 55 29 2f be
       -0.13142706 0.018135073 0.109008454 -0.1710561
000110 ec b6 b7 bb 1d e6 e9 3c 7e 5a 2b 3c 20 14 df bc
       -0.005606523 0.02855211 0.010458587 -0.027231276
000120 dd 22 4a 3d 3b 8c 57 bd 5a ba 1e be 7e 56 88 3d
       0.049349654 -0.05262397 -0.15500775 0.06657122
000130 46 db 82 bd ae 3c 8e bd ce 25 64 3d 3f 1c f7 bd
       -0.06389479 -0.069451675 0.055700116 -0.120659344
000140 70 73 a7 3d 4a e0 72 3d e9 5d a5 3c bf 40 0d bb
       0.08176315 0.05929593 0.020186381 -0.0021553484
000150 27 1d bf 3d b6 20 e2 bd 37 58 3f 3b 4e 1a b5 bd
       0.09331732 -0.11041395 0.0029196867 -0.08842908
000160 2d ac f0 3c 48 03 c0 3c 88 59 71 3a 02 d0 50 3c
       0.029378975 0.023439065 0.00092067616 0.012744905
000170 e9 1e 1d be 39 f4 9a bd 3c 00 94 bc cc 5c a0 3c
       -0.15343823 -0.07566113 -0.018066518 0.019575499
000180 ab b6 88 bc 3d fd 92 bd 3d db a3 bd 1f e9 ce 3d
       -0.016688665 -0.071772076 -0.08000801 0.10103058
000190 da 4c 20 be eb ab da 3d 48 df f1 bc 4f b6 e4 3d
       -0.15654317 0.10677322 -0.029525414 0.11167585
0001a0 a2 a0 bc 3c 5d 00 54 bd f5 d6 bb bd b9 4c 06 be
       0.023025814 -0.05175816 -0.09171859 -0.13115205
0001b0 08 9d d2 3d d3 d4 ba 3d f8 97 35 3d 5b b8 30 be
       0.102838576 0.09122624 0.04433438 -0.17257826
0001c0 4c 91 c9 bb 08 52 9e bc bc 05 ff bc e7 b1 e3 3d
       -0.006151354 -0.019326225 -0.031130664 0.111179166
0001d0 21 63 11 bc 74 3b 79 bd 41 6c 14 bd d5 68 b4 3c
       -0.008873732 -0.060847715 -0.03623605 0.022022644
0001e0 cb 48 09 3d f3 8b c6 bc d5 6c cf ba 81 ea 5d 3d
       0.033516686 -0.024236655 -0.0015825281 0.05417872
0001f0 8d 02 7c 3d 86 29 c7 bc c7 3a c2 3d 2f 8e 79 3d
       0.06152587 -0.024311792 0.09483867 0.060926612
000200 92 03 80 3c b8 38 18 be 4e 7e 63 bc 53 f4 12 be
       0.015626702 -0.14865386 -0.013885094 -0.14351015
000210 54 33 9c bd da 1f ad 3b 76 09 ec bc 1f e3 00 3d
       -0.076269776 0.005283338 -0.028813105 0.0314666
000220 8a ff 94 3d 77 0e 70 3c 0a da 14 be 35 db 0e be
       0.07275303 0.014651886 -0.145363 -0.13950808
000230 14 81 de 3d f2 5c 63 3d 94 6c 6a bd e7 46 7b 3d
       0.108644634 0.05550856 -0.057232454 0.061346915
000240 4e ae 4c 3c 22 c5 1a bc 3d 7d 66 bd 09 85 92 3d
       0.012492729 -0.009446414 -0.05627178 0.07154281
000250 d1 b8 25 be 7d 34 2b 3d b4 af 64 3c 65 d5 7a bd
       -0.16183783 0.041798104 0.0139579065 -0.061238665
000260 eb a9 e9 3c a3 c7 12 be 74 57 02 3d b3 c8 b9 bd
       0.028523406 -0.14333968 0.031821683 -0.090714835
000270 48 82 a5 bd 3c ee ef bc 72 97 9e 3b 6a 23 98 bc
       -0.0808149 -0.029288404 0.004839831 -0.018571574
000280 79 8e 9a bc 45 15 1d 3d 75 67 09 3c ce 3e f6 3d
       -0.018866764 0.038350362 0.0083864825 0.12023698
000290 b2 87 f5 ba a8 ea 7f bd c1 b6 01 3d eb 22 88 3d
       -0.0018732457 -0.062479645 0.03166843 0.06647285
0002a0 35 79 09 be 5c 82 27 3d 56 86 25 be db ba 15 bd
       -0.13425143 0.040895805 -0.16164526 -0.036555152
0002b0 5a ee 1a be 1e 04 0d 3d 33 84 86 3d db 15 a1 bc
       -0.15129986 0.034427755 0.06568184 -0.019663742
0002c0 d7 42 b9 3d 0c 81 bd 3b 56 64 d3 3d a3 80 95 3c
       0.09045952 0.005783206 0.10321872 0.018249815
0002d0 f4 af 96 3c c4 1e 02 be a5 9f 7e bc 4b b8 d7 3d
       0.018394448 -0.12707049 -0.015540992 0.10533198
0002e0 4e 34 24 be 65 3c e6 bd c0 cb c8 3d fa 9e fc bc
       -0.16035578 -0.11241988 0.09804487 -0.030837525
0002f0 2d 13 b3 bd 90 c9 bc 3d 49 b1 80 bd 55 bf f3 bd
       -0.08743892 0.092181325 -0.062838145 -0.11901728
000300 9e f3 1c be 1e 08 85 3c 91 7a 4e 3d 15 49 2f be
       -0.15327308 0.016239222 0.050409857 -0.17117722
000310 e4 b3 5b bd b6 0d 41 bc b2 a0 b4 3d e1 0e c0 3d
       -0.053638354 -0.011783054 0.08819713 0.09377838
000320 b8 3a a6 bd c9 97 cf bb c6 d2 d6 3d de d7 61 bd
       -0.081166685 -0.006335233 0.104894206 -0.055137508
000330 e7 ed a3 bd 4f 84 24 be 39 7e 2b 3d 6a 9c c6 bc
       -0.08004361 -0.16066097 0.041868422 -0.024244506
000340 ce e3 9c 3b f9 b0 33 bd e3 b8 8b ba 4b 60 61 3d
       0.0047878986 -0.043869946 -0.0010659959 0.055023473
000350 97 45 88 bd df 6e 37 bd 96 5a f0 bd ac bc fb 3d
       -0.06653898 -0.04478347 -0.11736028 0.12291846
000360 46 14 ba bd e0 e7 f8 bd 54 03 03 3c 01 d6 70 bd
       -0.09085898 -0.12153602 0.007996399 -0.05879784
000370 64 7e 33 3d 56 bc 08 be 1b 2a a6 3c 78 9c 14 be
       0.043821707 -0.13353094 0.02028375 -0.14512813
000380 2e 06 97 bd 1f dd 9d bd a7 0c f8 bd 5f 90 a1 3d
       -0.073742256 -0.07708191 -0.12111788 0.07888865
000390 61 d7 eb bc 60 25 d0 bd 47 a4 76 bc f7 46 22 3c
       -0.028789224 -0.10163379 -0.015053815 0.009904615
0003a0 21 18 8b bd 45 2e 20 be b0 cd 10 be 91 86 c9 bc
       -0.067917116 -0.1564265 -0.14140964 -0.0246003
0003b0 bc ca 2b bd 98 5e 0a bd a0 f3 e9 3b 78 d2 2c be
       -0.04194139 -0.033781618 0.007139638 -0.16877162
0003c0 94 29 1a be ac c5 fc bd 4a 6f bc bd ec 8a fc 3c
       -0.15054923 -0.123423904 -0.09200914 0.030827962
0003d0 3f a7 00 3e e8 04 c1 bd 65 51 d9 bd 93 a4 d8 3d
       0.125638 -0.09424764 -0.10611228 0.10578265
0003e0 8b e0 c2 3d 81 8d 14 be f4 51 aa 3d 7b 74 8c bd
       0.095154844 -0.14507104 0.083164126 -0.068581544
0003f0 f3 8f 49 3d c8 0a a5 bc a4 6e e1 bd 80 1c e1 bd
       0.049209546 -0.020146742 -0.11007431 -0.10991764

bias f4 [41]
000000 38 09 02 3d fa f4 67 bd 92 55 86 bd 40 50 09 3d
       0.031747073 -0.056630112 -0.0655929 0.033523798
000010 6e a5 01 3d 86 21 6b 3c 36 fd f9 3b 87 71 5c 3d
       0.031651907 0.014351254 0.007629062 0.053819206
000020 ac b8 28 3d e2 8f 84 3d 5d 56 29 bd c8 17 d9 bc
       0.04119174 0.06472756 -0.041342128 -0.026500598
000030 91 f7 31 bd 36 ef fe 3c 4b fc 12 bc ed e7 83 bd
       -0.04344899 0.031119924 -0.008971284 -0.06440721
000040 79 84 24 3d fb 99 cf bc 7a e1 93 3c dd 6c fc bc
       0.0401654 -0.025341978 0.018051852 -0.030813629
000050 a4 dc 0b bd e4 dd 9e 3c 55 df 38 3d 10 94 3f 3d
       -0.034145966 0.019392915 0.04513486 0.046772063
000060 31 cb 36 bd 6d 55 e7 bb 56 03 12 bc 86 88 15 bb
       -0.044627372 -0.007059744 -0.008911928 -0.002281697
000070 7b 67 1e bc c2 70 2a bd 6c 98 87 b8 e9 43 e8 bc
       -0.009668226 -0.04161144 -6.4656924e-05 -0.028352695
000080 37 fa 1b bd a2 d4 96 bc c5 ca 2e 3d 76 b1 0b 3d
       -0.03808042 -0.018411938 0.042673845 0.034104787
000090 c3 5c 03 3d ef b0 fe bc a3 5d 53 bd 46 f5 f1 3b
       0.032070886 -0.031090228 -0.05160297 0.007383975
0000a0 90 73 c6 bc
       -0.024225026
